trainingruns/1hiddenlosscutoff0.5/saved/saved_model.pkl (torch, 9136 bytes, 3 tensors)

input_to_hidden.weight f4 [220, 6]
0	0xbf984b45	-1.189797
1	0xbf48c589	-0.78426415
2	0xbeb61357	-0.3556163
3	0xc155b663	-13.357028
4	0xbe2b94db	-0.16756003
5	0xc03f3f44	-2.9882364
6	0xc00a2a47	-2.1588304
7	0xbfa13528	-1.2594347
8	0xc015ac84	-2.3386545
9	0xbeb06dc5	-0.34458748
10	0xc142d517	-12.177024
11	0xbfa48d10	-1.2855549
12	0xc0c91c3f	-6.284698
13	0xc07fd578	-3.997404
14	0x408f2a4a	4.4739122
15	0x3ffc621a	1.9717438
16	0x3f5a490e	0.8526772
17	0xc168a9dd	-14.541471
18	0xbf7241b4	-0.94631505
19	0x3ffb878c	1.9650741
20	0x3f7b95f9	0.98275715
21	0x408e411d	4.4454484
22	0xc17b4f5f	-15.706878
23	0xc108e9ea	-8.557108
24	0xbed1213c	-0.40845668
25	0xc056c762	-3.3559194
26	0xc0837651	-4.108193
27	0x40a75f67	5.230396
28	0xc00ff191	-2.249119
29	0xc139135a	-11.5672245
30	0xbfb09420	-1.3795204
31	0xbfe87dcc	-1.816339
32	0xc094bbdd	-4.6479325
33	0xc088659f	-4.262405
34	0xbf9968bf	-1.1985091
35	0xc00e4e9a	-2.2235475
36	0xc00e3b9d	-2.2223885
37	0xbf837577	-1.0270222
38	0xbf9e803a	-1.2382882
39	0xc0d465f1	-6.637444
40	0xc0f2242c	-7.5669155
41	0xc0161840	-2.34523
42	0xbfa234dd	-1.2672383
43	0xbfd5e919	-1.6711761
44	0xc0b3dc59	-5.620648
45	0xc0af9801	-5.487305
46	0xbe229e0b	-0.15880601
47	0xc052d8fc	-3.2944937
48	0xbe397053	-0.18109255
49	0x402c99a3	2.6968772
50	0xc151a061	-13.101655
51	0x4049d8ae	3.15385
52	0xbea272c3	-0.3172818
53	0xc07e39e9	-3.9722846
54	0xbf9c4881	-1.2209626
55	0xbfba5a2e	-1.4558771
56	0xc0d610e1	-6.6895604
57	0xc0ac09b6	-5.3761854
58	0x3fefabb9	1.872428
59	0xc0f8f6b0	-7.780113
60	0xc00e4fb1	-2.223614
61	0xbfb797a1	-1.4343148
62	0xbfa833a0	-1.3140755
63	0xc0a6b36b	-5.2094016
64	0xc10e3062	-8.886812
65	0xc0042b02	-2.065125
66	0xc010e117	-2.2637384
67	0xbfc81aa1	-1.5633126
68	0xbfa71045	-1.305184
69	0xc095db59	-4.683026
70	0xc1139532	-9.223925
71	0xbff6b008	-1.927247
72	0xbf8c2ce0	-1.0951195
73	0xbfbd1921	-1.4773294
74	0xc0fd30c5	-7.9122033
75	0xc032b3c8	-2.792223
76	0xbd37889f	-0.044808026
77	0xc02c4b16	-2.692083
78	0xc004391a	-2.0659852
79	0xbff1f514	-1.8902917
80	0xbf70af00	-0.9401703
81	0xc0aef675	-5.467585
82	0xc10a1efd	-8.6325655
83	0xbff44ee2	-1.9086573
84	0xbfc15131	-1.5102903
85	0xbf9605db	-1.1720537
86	0xbff5f53a	-1.9215462
87	0xc0fe520c	-7.9475155
88	0xc00b2f50	-2.1747627
89	0xc0131776	-2.298307
90	0xc00c2d84	-2.190278
91	0xbfaee594	-1.3663812
92	0xbfaa5037	-1.330573
93	0xc0aa990e	-5.3311834
94	0xc10b6370	-8.711777
95	0xc0061b6c	-2.0954237
96	0xbfb33f35	-1.4003664
97	0x402f279d	2.7367928
98	0xc14caa9b	-12.791652
99	0x4025d492	2.5910993
100	0x3f1f9cec	0.6234882
101	0xc024fbc2	-2.577866
102	0x407c1a54	3.939107
103	0x3f9de311	1.233492
104	0xc068da38	-3.638319
105	0xc0afe058	-5.4961357
106	0x3f64c5ca	0.893643
107	0xc16e381f	-14.888701
108	0xbf8c2453	-1.0948585
109	0xc0038fe1	-2.0556567
110	0xc0ce8a9a	-6.454419
111	0xc045b1fb	-3.088988
112	0xbf038f22	-0.5139028
113	0xc009a69b	-2.1507938
114	0x3ea82af6	0.32845277
115	0xc156d11f	-13.426055
116	0xbf1cc4b3	-0.6123764
117	0xbf0afde7	-0.54293674
118	0xbe7c1347	-0.24616729
119	0x3eac10c3	0.33606538
120	0xbf90484b	-1.1272062
121	0xbf93a197	-1.1533688
122	0xc11096bc	-9.0368
123	0xbfe4ddca	-1.7880185
124	0x3d840d3f	0.06447839
125	0xc019dfae	-2.4042773
126	0xbffdefc8	-1.98388
127	0xbf840df5	-1.0316759
128	0xc02e4442	-2.7229161
129	0x3e9e03f2	0.30862385
130	0xc14fee42	-12.995668
131	0xbfa69088	-1.3012857
132	0xbf510d09	-0.81660515
133	0x3f81818c	1.011766
134	0xc13ffbb5	-11.998952
135	0x3f3b8181	0.7324448
136	0xbd58a37a	-0.05289028
137	0xc0567311	-3.350773
138	0xbfc6260d	-1.5480362
139	0xbfba7e82	-1.4569857
140	0xc056a8d1	-3.3540537
141	0xc0c0abfd	-6.0209947
142	0xbfc82f17	-1.5639371
143	0xc018853e	-2.3831325
144	0xbf5965f4	-0.84921193
145	0xc05a207e	-3.4082332
146	0xc08bbac7	-4.36655
147	0xc0392537	-2.8928964
148	0xbfaa876e	-1.332258
149	0xbfa0c0e1	-1.2558862
150	0xbfac38a2	-1.3454783
151	0xbfed6f3f	-1.8549575
152	0xc07d3744	-3.9564981
153	0xc0a957bd	-5.2919602
154	0xbf971b3a	-1.1805184
155	0xc013feb5	-2.312421
156	0xbf35b315	-0.7097638
157	0xc07e1476	-3.9699988
158	0xc09a9aef	-4.831413
159	0x40b06fd1	5.5136495
160	0xbf6bcb46	-0.92107046
161	0xc151666f	-13.087508
162	0xbea1dd66	-0.31614226
163	0xc0b1b46a	-5.553273
164	0xc0935f9a	-4.60542
165	0xbfe84e5b	-1.8148912
166	0xbf914941	-1.135048
167	0xbeeb512b	-0.45960364
168	0x4022089e	2.531776
169	0xc1774189	-15.4535
170	0x401ab875	2.4175084
171	0x3f9d37a9	1.2282611
172	0x3fb41f30	1.4072018
173	0xbfd8b164	-1.6929135
174	0xbf8f10a1	-1.117695
175	0xbfd93557	-1.6969403
176	0xc0e4af1e	-7.1463766
177	0xc04b2096	-3.173864
178	0xbe68e346	-0.22742948
179	0xc022e973	-2.5454986
180	0xbfa8a529	-1.3175403
181	0xbfed4b4e	-1.8538606
182	0xc09b33a6	-4.8500547
183	0xc089c8db	-4.3057685
184	0xbf81f570	-1.0153027
185	0xc011fc22	-2.281014
186	0x3fdaf1f8	1.7105093
187	0xc0130f0f	-2.297794
188	0xbfbfe76b	-1.4992498
189	0x3f91151e	1.133457
190	0x4020c8b7	2.5122507
191	0xc2017a7c	-32.369614
192	0xbfede2a6	-1.8584793
193	0x3a7b4609	0.0009585326
194	0xbf1affa5	-0.6054633
195	0xc1324379	-11.141473
196	0xc069ce9b	-3.6532352
197	0xc035f728	-2.8432102
198	0xbfa83023	-1.313969
199	0xc00647e3	-2.0981376
200	0xc035733a	-2.8351579
201	0xc09d2d4c	-4.9117794
202	0xbffdb585	-1.982102
203	0xbfe043c5	-1.7520682
204	0xc00a4081	-2.160187
205	0xbfb26280	-1.393631
206	0xbfa1fa05	-1.2654425
207	0xc0b27fce	-5.578101
208	0xc1089adb	-8.5378065
209	0xc006ed69	-2.1082404
210	0xbf838ef2	-1.0277998
211	0xc031fe3e	-2.7811427
212	0xc0915a03	-4.5422378
213	0xc04b2569	-3.1741583
214	0xbfa609d5	-1.297175
215	0xbfc53159	-1.5405685
216	0xbf686b81	-0.9078904
217	0xc0336df0	-2.803585
218	0xbecdb630	-0.4017806
219	0xc0610bef	-3.5163534
220	0xc069358d	-3.6438935
221	0xbfa6a18e	-1.3018053
222	0x3ef99ddc	0.4875325
223	0xc11265d3	-9.149859
224	0xbff97a4b	-1.9490446
225	0xbfd8dcde	-1.6942403
226	0xbfd072d0	-1.6285038
227	0x3fa00989	1.250291
228	0x3f34bc35	0.7059968
229	0xc10dccd0	-8.862503
230	0xbf4d0c39	-0.80096775
231	0xbfd1744c	-1.6363616
232	0xc01c2e3b	-2.4403217
233	0x3fa8247a	1.3136132
234	0xbfbc9f55	-1.4736124
235	0xbf7e3445	-0.99298507
236	0xc04b4094	-3.1758165
237	0xc11ccf80	-9.800659
238	0xbe78365b	-0.24239485
239	0xc05a7ca1	-3.4138567
240	0xbf970eb0	-1.1801357
241	0xc06df7ff	-3.7182615
242	0xc0aca56a	-5.395192
243	0x40aeca56	5.462199
244	0xbe39c0e1	-0.18139984
245	0xc1633127	-14.1995
246	0xbfac2288	-1.3448038
247	0xbffcb86e	-1.9743783
248	0xc081dc40	-4.058136
249	0xc094951c	-4.643202
250	0xbfac2a4d	-1.3450409
251	0xc007d4ea	-2.1223702
252	0xc1a3b276	-20.46214
253	0x3f149551	0.5804034
254	0xbf66ddb0	-0.9018202
255	0x3fbe663a	1.4874947

input_to_hidden.bias f4 [220]
0	0x3f085747	0.53258175
1	0xbe9ff8bd	-0.3124446
2	0x403b5d70	2.927578
3	0xbfc612d0	-1.5474491
4	0xbf8ad86e	-1.0847299
5	0xbfe50d85	-1.7894751
6	0xc06d7a5f	-3.710594
7	0x401892da	2.383963
8	0x3f53ab1b	0.8268296
9	0x4064e336	3.5763679
10	0xc02f05b3	-2.7347229
11	0xc016e378	-2.3576336
12	0x4004d91b	2.075751
13	0xc0387397	-2.882055
14	0x3f90913a	1.129432
15	0xc04d02f6	-3.2033057
16	0x404f432a	3.2384744
17	0x40323cfc	2.7849722
18	0x3fc2b94a	1.5212796
19	0x3e77b234	0.24189073
20	0x4010e497	2.263952
21	0x3e4b2e26	0.19841823
22	0x3fa733c1	1.3062669
23	0xbf873110	-1.0561848
24	0xbe649963	-0.22324137
25	0x3fd0b222	1.6304362
26	0xbfbb6995	-1.4641596
27	0xbed45103	-0.41468057
28	0x3f1f3638	0.62192106
29	0x40117066	2.2724853
30	0x3f892c49	1.071664
31	0x40106509	2.2561667
32	0xc0166a3a	-2.3502336
33	0x3f67e4c6	0.90583456
34	0xc043ad5f	-3.0574567
35	0xbe573800	-0.21017456
36	0xc0f9c420	-7.805191
37	0x40145670	2.3177757
38	0x3e6542d7	0.22388779
39	0x40076a4f	2.1158636
40	0xbfa1b2de	-1.2632711
41	0xc024d356	-2.575399
42	0x3d897463	0.06711652
43	0xc0be6003	-5.94922
44	0x3f15241a	0.5825821
45	0xbfd58a7c	-1.6682887
46	0xbf3f9fc2	-0.74853146
47	0xc01c1707	-2.4389055
48	0x3fc04a27	1.502263
49	0x3feab9bd	1.8337933
50	0xbf80846d	-1.0040413
51	0x3fc70eea	1.5551426
52	0x3fb4c245	1.4121786
53	0x3f840cb3	1.0316375
54	0x400621bf	2.0958097
55	0x3f87c147	1.0605859
56	0xc03f18a1	-2.9858782
57	0x3fb57ef7	1.4179372
58	0xc0161c80	-2.3454895
59	0x3f6ece68	0.932837
60	0x3fbfaa48	1.4973841
61	0x3ee82c3c	0.45346248
62	0x3fbfaaf0	1.4974041
63	0xc04f152e	-3.2356677
64	0x3fcc15e3	1.5944179
65	0xc01e0c30	-2.4694939
66	0xc01f863d	-2.4925683
67	0xbf0dd90f	-0.5540933
68	0x3f4e0f98	0.80492544
69	0x3d133c02	0.0359459
70	0xbf844a86	-1.0335243
71	0xc056244a	-3.345965
72	0x3f19ff01	0.6015473
73	0xc0145048	-2.3174
74	0xc04255fe	-3.0364985
75	0xc021b6ce	-2.5267825
76	0xc03a2eea	-2.9091134
77	0x3f69269d	0.91074544
78	0x4031cb2a	2.7780252
79	0x3fb981ed	1.4492775
80	0xc04cc0ca	-3.199267
81	0xc0b46df1	-5.6384206
82	0xc0571022	-3.3603597
83	0xc0055cbf	-2.0837858
84	0xc030ca33	-2.7623413
85	0x403b0a1f	2.9224927
86	0x40366f0c	2.8505278
87	0xbfc8ac58	-1.5677595
88	0x3f565e21	0.8373738
89	0x3f78dbef	0.9721059
90	0xc08a9d07	-4.3316684
91	0xbfd6b77f	-1.6774749
92	0xc02dd696	-2.7162223
93	0xc04a95ba	-3.1653886
94	0xc06e58d1	-3.724171
95	0xc0222b13	-2.533879
96	0x3f904c21	1.1273233
97	0x3fa6f944	1.304482
98	0x3fed5366	1.8541076
99	0xc04c45e2	-3.1917653
100	0x3f513b91	0.81731516
101	0x3efe90f8	0.49719977
102	0x3fdc9668	1.72334
103	0x3f7ee8dc	0.99574065
104	0x3f9e9146	1.2388084
105	0xc057fbfe	-3.3747554
106	0x3fb29998	1.3953123
107	0xbf0adb3e	-0.5424079
108	0xc0340f2c	-2.813426
109	0x3e820b65	0.25399318
110	0xbee160a7	-0.44019052
111	0xbfecdc68	-1.8504763
112	0xc0609870	-3.509304
113	0x400ce1c9	2.2012808
114	0xbf9e68ff	-1.2375792
115	0x3efa0e3b	0.48838982
116	0xbfca35da	-1.5797684
117	0x3e755eca	0.2396194
118	0x40266ed5	2.6005147
119	0x4049ef09	3.1552145
120	0xc0a1eb91	-5.0600057
121	0x3f757eb7	0.95896477
122	0x3fa07e9b	1.2538637
123	0x3ddc8e2a	0.10769303
124	0x403158fc	2.7710562
125	0x404420e4	3.0645075
126	0x3f95fc35	1.1717592
127	0x40053929	2.0816138
128	0x404b4d2e	3.1765857
129	0x3fbe79dc	1.4880939
130	0x4054e833	3.3266723
131	0xbf422bb9	-0.75847965
132	0x3fc5f657	1.5465802
133	0x4033852c	2.8050032
134	0xbee03482	-0.4379006
135	0xbf71e0b0	-0.9448347
136	0xbf0c61a1	-0.5483647
137	0xbd16329f	-0.03666937
138	0x401e44f7	2.4729593
139	0xc062be79	-3.5428755
140	0x3f73ccce	0.9523438
141	0xbf2f128c	-0.68387675
142	0x406ab975	3.6675694
143	0xbed058e1	-0.4069281
144	0xbefb6964	-0.49103844
145	0x3fbea430	1.4893856
146	0x3fe09869	1.7546512
147	0xc0617d21	-3.5232623
148	0x3d0d9b71	0.03457207
149	0xc039c14c	-2.902423
150	0x3eb787f1	0.35845903
151	0xbf2b98a8	-0.6702981
152	0x3f016acd	0.5055359
153	0x3fa00125	1.2500349
154	0x3eb2af30	0.34899282
155	0x406e7c47	3.7263353
156	0xbf412fc1	-0.7546349
157	0x3f5db62f	0.86606115
158	0x3f96c13f	1.1777724
159	0x3b293030	0.0025816076
160	0x3e6147e5	0.22000082
161	0xc05cd273	-3.4503448
162	0x3f90be7b	1.130813
163	0x3f257acb	0.6464049
164	0x3fd41b53	1.6570839
165	0x3ec156f4	0.37761652
166	0xc07585ed	-3.8362992
167	0x3f085244	0.5325053
168	0x4032ee30	2.7957878
169	0xbf4789f9	-0.77944905
170	0x3fb88c51	1.4417821
171	0x3f39aa07	0.72525066
172	0x3fa91b19	1.3211395
173	0xc038ed2b	-2.8894756
174	0xc00cf56d	-2.2024796
175	0xbf692d92	-0.9108516
176	0x4015e9ca	2.3423944
177	0xc09c7f2e	-4.890525
178	0xbfab73ab	-1.3394674
179	0xbf1db201	-0.6159974
180	0x3f4f290d	0.80922014
181	0x40187b69	2.3825324
182	0x3f993b68	1.1971254
183	0xc0a6c69c	-5.2117443
184	0xc0132fe5	-2.2997983
185	0xbfa9ae8d	-1.3256394
186	0xc0437652	-3.0540967
187	0x403f4b2d	2.9889634
188	0x3e282e64	0.16423947
189	0xc03aa2e5	-2.9161923
190	0xc0282f09	-2.6278708
191	0xc07155d2	-3.770863
192	0x3fde2ac3	1.73568
193	0x407328c0	3.7993622
194	0xc0b25329	-5.5726514
195	0xc0306bb7	-2.7565744
196	0xbfac0fcd	-1.3442322
197	0xc0549bac	-3.3220015
198	0x3f525b44	0.8217051
199	0x3fc17f72	1.5117018
200	0xc04b0352	-3.1720777
201	0xbfbecc65	-1.4906126
202	0xbe3a987f	-0.18222235
203	0x404773c5	3.116441
204	0xbfba65d5	-1.4562327
205	0xbf057477	-0.52130836
206	0xc0591d7f	-3.3924253
207	0x4013f720	2.3119583
208	0xbf97ecb8	-1.1869116
209	0xbdd2dc52	-0.10295929
210	0x3fd5811b	1.6680025
211	0x401a4d13	2.4109542
212	0x3faef626	1.3668869
213	0x40816f28	4.044819
214	0x3e1eac10	0.15495324
215	0x3e96e82f	0.29474017
216	0x3f26693a	0.65004313
217	0x3fba2712	1.4543173
218	0xbfa2601c	-1.268558
219	0xc0caf0ff	-6.3419185

hidden_to_output.weight f4 [1, 220]
0	0x4089f9eb	4.3117576
1	0x40c0e9c7	6.0285373
2	0xc0d090f0	-6.5176926
3	0x40f8c06c	7.773489
4	0xc08b2415	-4.3481545
5	0x407edd5d	3.982261
6	0x4067be94	3.621007
7	0x40b68d14	5.7047215
8	0x40b1e9e2	5.5598
9	0x40d9e9e8	6.809803
10	0x4087fd44	4.249666
11	0x40927ff6	4.57812
12	0x40b252b9	5.572598
13	0x40835131	4.103661
14	0x40a349fc	5.1027813
15	0x4080c737	4.024318
16	0x40c004d1	6.000588
17	0xc0b67b8a	-5.7025805
18	0x4098bd9f	4.773147
19	0x406104ab	3.51591
20	0x40adb18f	5.4279246
21	0x40ca60fb	6.3243384
22	0x4096ccf0	4.712517
23	0x408465f9	4.137448
24	0x405a800c	3.4140654
25	0x409a84b4	4.828699
26	0xc0a888bc	-5.266691
27	0x40464688	3.098055
28	0x40c74516	6.2271833
29	0x40acf089	5.404362
30	0x4095ac14	4.6772556
31	0xc102dcb5	-8.178884
32	0x405913a1	3.391823
33	0x40866d84	4.2008686
34	0x4079e9dd	3.904899
35	0x406bda63	3.6852043
36	0x3fbf73f5	1.4957262
37	0x40a592e5	5.1741815
38	0x40819521	4.049454
39	0x40aec218	5.461193
40	0xc0b41afb	-5.6282935
41	0x4077b714	3.8705492
42	0x409a0cfb	4.8140845
43	0x40200d90	2.5008278
44	0x40949a1d	4.6438127
45	0x40887850	4.2646866
46	0xc0b7d2d7	-5.7444873
47	0xc0825ef0	-4.074089
48	0x40992108	4.785282
49	0x409b1281	4.846009
50	0xc0b200b2	-5.562585
51	0x4095be44	4.679476
52	0x40afdae2	5.495469
53	0x40857242	4.1701975
54	0x40a8008a	5.250066
55	0x40a03565	5.006518
56	0x4062e8ea	3.545466
57	0x408a8a10	4.3293533
58	0x40890c59	4.2827573
59	0x40915b4c	4.5423946
60	0x4091a0d8	4.5508842
61	0x408d14c7	4.4087863
62	0x40ae2bb0	5.442833
63	0xc0206483	-2.5061347
64	0x40ab2f0b	5.3494925
65	0x4095ea8a	4.6848803
66	0x4075ec86	3.8425612
67	0x407a2fc7	3.909166
68	0x409c9273	4.892877
69	0x4084c598	4.1491203
70	0xc0865dcc	-4.19895
71	0x406c8144	3.6953897
72	0x40937c8d	4.608954
73	0x40936251	4.6057515
74	0x40921aed	4.565787
75	0x4017ec32	2.3737912
76	0x40831e1e	4.0974264
77	0x40c47581	6.1393437
78	0x40be5f66	5.9491453
79	0x409a5753	4.8231597
80	0x4076a901	3.8540652
81	0xbf92d8b0	-1.1472378
82	0x407b7623	3.9290855
83	0x407440d3	3.8164566
84	0x408b688f	4.3565135
85	0x40d25f8c	6.5741634
86	0x40bd40ff	5.914184
87	0x40678350	3.6173897
88	0x402ca5cd	2.6976197
89	0x40887ef4	4.265497
90	0x40610950	3.5161934
91	0xc0a18e75	-5.04864
92	0x407c4312	3.9415936
93	0x40879e69	4.238087
94	0x407152c3	3.7706764
95	0x40904f19	4.5096555
96	0x40882c8f	4.2554393
97	0x40875d4f	4.23014
98	0x4095b922	4.678849
99	0x406983c8	3.6486683
100	0x408bd37e	4.369567
101	0x4095934d	4.674231
102	0x409c6875	4.887751
103	0x408d15b2	4.4088984
104	0x40a8cf5c	5.2753124
105	0x407bf7a5	3.93699
106	0x40b3e50f	5.6217113
107	0x40851ef2	4.1600275
108	0x4087d802	4.245118
109	0x40831f60	4.09758
110	0xc0b9849d	-5.797438
111	0xc09f017b	-4.9689307
112	0x40884979	4.258969
113	0x40aa6e8f	5.325996
114	0xc084d740	-4.1512756
115	0x4082cb87	4.0873446
116	0xc09eb5de	-4.9597006
117	0xc0cb662f	-6.3562236
118	0x40c2a595	6.0827127
119	0x40b7ec12	5.747567
120	0x40431bc5	3.04857
121	0x4068efb7	3.639631
122	0x408f0665	4.4695306
123	0x408ff124	4.498186
124	0x40c16bfe	6.0444326
125	0x40ca3fae	6.3202734
126	0x40881fd0	4.2538834
127	0x40a83bbe	5.2572927
128	0x40d7530b	6.728887
129	0x4095a38d	4.6762147
130	0x40cb1db5	6.3473763
131	0x4040002c	3.0000105
132	0x40ac7d94	5.3903294
133	0x40bb0d13	5.845346
134	0x4093bfd6	4.6171675
135	0x40445acc	3.0680418
136	0x4085ca8b	4.1809745
137	0x404f5a3b	3.2398822
138	0x40b32df8	5.5993614
139	0x40571d93	3.36118
140	0x40810d0e	4.0328436
141	0x406ae654	3.670308
142	0xc09bd2aa	-4.869466
143	0x409a3cf9	4.819943
144	0x40449dae	3.072124
145	0xc07ca2e2	-3.9474416
146	0x40adfe44	5.4372883
147	0x40595f3c	3.3964376
148	0xc0c447f9	-6.1337857
149	0x40896fb7	4.294887
150	0x40810231	4.0315175
151	0x4069e4ce	3.6545901
152	0x408fe1fc	4.496336
153	0x408028e4	4.0049915
154	0x4089db39	4.3080106
155	0x410f06dc	8.939175
156	0x4063702c	3.5537214
157	0x4085a1ef	4.1760173
158	0x40827972	4.077325
159	0x4057f206	3.374147
160	0x408b8864	4.3603992
161	0x406a2e52	3.6590772
162	0x4092d0a6	4.58797
163	0x403b3f83	2.9257514
164	0x40c9be5d	6.3044877
165	0x402239fc	2.534789
166	0x405abe23	3.417855
167	0x406825a9	3.6272986
168	0x40b7a5d8	5.7389946
169	0x404deeac	3.2176924
170	0x408c3621	4.3816075
171	0x409316d5	4.596537
172	0x40a2dffc	5.089842
173	0x4086e1f9	4.2150846
174	0x407b9c88	3.931429
175	0x408a6e06	4.3259306
176	0x40948711	4.6414876
177	0xc1047cd6	-8.280478
178	0x4082b900	4.085083
179	0x408bddbd	4.3708177
180	0x409b370c	4.8504696
181	0x40b10164	5.5314198
182	0x408c9756	4.3934736
183	0x403d5cd4	2.9587908
184	0x408ee14a	4.465001
185	0xc097ac5f	-4.7397914
186	0x40808e70	4.0173874
187	0x40bc7e80	5.890442
188	0x40880e81	4.2517705
189	0x407c7d35	3.945142
190	0x40808082	4.015687
191	0x4064c5dd	3.5745766
192	0x408f83a5	4.48482
193	0x4100fa1a	8.06106
194	0xc023b53a	-2.5579362
195	0x407b22d2	3.9240003
196	0x4101132d	8.067182
197	0x40688516	3.633123
198	0x4085068e	4.15705
199	0x4099f1b4	4.810755
200	0x4079cb99	3.9030516
201	0xc09c9ae4	-4.8939075
202	0x4049e830	3.1547966
203	0x40b34048	5.601597
204	0x4051cb0e	3.2780185
205	0x407f2ff8	3.9873028
206	0x407491d2	3.8214002
207	0x40ae09d8	5.4387016
208	0xc0aa5393	-5.322702
209	0x411522e8	9.321022
210	0x409994aa	4.7993975
211	0x40aa5643	5.32303
212	0x4093d4a5	4.6197076
213	0x404762cc	3.115405
214	0x40871b1c	4.2220592
215	0x40874514	4.2271824
216	0x408fdf93	4.496042
217	0x40543350	3.3156319
218	0x403d77c5	2.9604352
219	0xbfcf868d	-1.6212937
