trainingruns/1hiddennodropoutsecond/saved/saved_model.pkl (torch, 9136 bytes, 3 tensors)

input_to_hidden.weight f4 [220, 6]
00000000: 5222 3a3f 307f fb3f b20f 793f 7a78 42be
00000010: e87b 44bf ec83 0bbf 981c dabe 327c adbd
00000020: 2f89 5bbe 68ae e53d 68ad 2dbf a390 55bf
00000030: 46b1 b3be 2a00 863e a36e cdbe 4dca 19be
00000040: fec8 47bf 85fb 8cbe bf15 163f c4b4 c8bf
00000050: ca58 00c0 5cc2 873e defe b43e bae4 04be
00000060: 83dc 71bf e29a 16bc 13b2 753f 3db7 833f
00000070: 6120 c7bd 1ab0 783f d513 b13e e36e 953e
00000080: 5bfc 32c0 6f5a 16bf e9e9 d53e 989c f9be
00000090: 46c6 183f 6d65 18bf b8e3 24c0 8747 36bf
000000a0: 4c06 c33e 7c77 c3be 8c7e 9abe a798 83bf
000000b0: 4ec4 a73f 59a7 f53f 84b5 dfbd 097c 7e3f
000000c0: 4e19 393f 9a63 1e3f a0ac 8abf 80b3 37c0
000000d0: 50a9 dcbe 22d2 a9bf 9baf f83d 61aa aebd
000000e0: 6a1b 14bf 2653 cc3f 4b9d 0c3f 24e9 413f
000000f0: d666 0cbf dd7f cebd 128e 6fbe d88c a3be
00000100: 2da1 13bf 1152 8fbf b399 e03e 5f52 1b3f
00000110: 3815 403d 9f4e 74c0 9a5e 6fbf 265d c5bf
00000120: 8a6d 9cbe 122c f53d 880d 44be 076c 61bf
00000130: 8a4e 71bf a85f c5be 6ac7 a4be 1c44 f1bf
00000140: 91c9 a1bf cc5c cbbc 1196 1b3f 4c2b a83e
00000150: cd05 07bd 6d48 06be 75d7 423d 62dd ddbd
00000160: 9d35 3cbf 0fe8 afbd d678 a33e d3cd a63f
00000170: c046 c53f f410 59bd cb59 89bf 1c3c cbbe
00000180: bedb c7bd 6adc f1bd d577 8dbe ef09 93be
00000190: 30cb 7bbf 135b 0d3e b904 02bf a397 40bf
000001a0: 34b8 83bf 0b01 29be 15d0 8fbf 1487 4abf
000001b0: 62eb 5bbf 5951 bebd 904a d6be 1f11 72bf
000001c0: 63e8 52bf 1091 57bf 21f7 1bbd a899 e7bf
000001d0: bb68 02c0 b537 043f 7b79 763f 7498 e23e
000001e0: 972f 013d 3eb4 4d3f ad94 23be 059d 54c0
000001f0: e375 47bf 26ca adbf 81ae c93d 64c3 37bf
00000200: c970 07c0 57b4 19bf 0c49 923e e87d 99be
00000210: d844 2b3f db33 e43f a697 6c3e 0e3c bcbe
00000220: e41f 64bd 48d6 bbbe f72d 343f 2d82 79bf
00000230: 7510 09c0 1729 19bf 1d2c fabd a5e3 06bf
00000240: 6c70 9dbe 0858 123e 5d9d 31be 1baf 14be
00000250: 548f 8cbf 5d20 8bbe 56b4 0cbf a502 babf
00000260: b85a b7bf 6bf3 793f 8232 8c3f 035e 733f
00000270: b409 adbc a1a1 77be d897 f2bc 0a62 4ebe
00000280: 4e52 3bbf b408 15bf 83a0 c1bc 77e4 1ebe
00000290: 0ae3 01bf 940a 2dbf 40f7 9abf ea96 b83f
000002a0: bf0e 15be 0a1a 77bf 3c6f f4bf 982f 06bf
000002b0: 3a25 5e3f 2450 223d f548 1ebf 736d bb3d
000002c0: 5cb5 b13e f7b1 8d3e f4ff 9dbe f5b7 713e
000002d0: af29 16bf 1db0 88be 1b42 a9be 7ac7 f63d
000002e0: a9f3 e6bd 4d20 0ac0 b617 b03e 2d7b d33f
000002f0: 07c5 5b3e 6ede 6fc0 d1bd 17bf 2d98 e2bf
00000300: 9009 3bbf fc7e b5be e5ef 15bf 6461 bebe
00000310: e894 cebe 4cce 53bf 830f cc3e 52dd 05c0
00000320: 8675 d9bf b83d db3e e9ff d93d 29f2 163d
00000330: 5bb7 0dbf 60d8 1fbb 47e6 1dbf ae63 1bbe
00000340: 5b04 69bf 6116 b0be 8cb8 813f aa32 f7bd
00000350: a3ac 24c0 ab3e 61bf 82c5 d63e 207d 2fbf
00000360: 2653 7dbf e9f8 fcbd 91e2 b03f 25ff a83e
00000370: b892 503e 8c29 873f a0ea 56bf 1e20 67bf
00000380: 41d4 6c3f 89ca 1240 8382 af3c d36f 963f
00000390: a2d7 1fbf 12c6 543e cc97 c23e 96d4 093f
000003a0: e235 40be ddbb 1d3f b65b 37bf 1930 1fc0
000003b0: e11c 90bf c351 103e 28e8 cb3e fa73 073f
000003c0: 4894 49be 089f 33c0 ff8c a4bf 7672 133f
000003d0: 3ed7 893e bfaf dd3e b627 0dbf 836a 66bf
000003e0: 1e31 d5be b0cf 253c 4dcb 5abf 1394 5b3e
000003f0: fd98 863f 4b14 2e40 b847 083f 472d 57be
0.7270862 1.964819 0.97289574 -0.1899127 -0.76751566 -0.5449817 -0.4259994 -0.08470954
-0.2143905 0.11214906 -0.6784272 -0.83423823 -0.35096186 0.26172 -0.40123472 -0.15018578
-0.78041065 -0.27535644 0.5862693 -1.5680165 -2.0054193 0.26515472 0.35350698 -0.12977877
-0.944771 -0.0091922 0.95974845 1.0290295 -0.09722973 0.9714371 0.34585443 0.29186162
-2.7966526 -0.5873174 0.41780022 -0.48752284 0.5967754 -0.59529763 -2.5763988 -0.7120289
0.38090742 -0.38177097 -0.30174673 -1.0280961 1.3106782 1.9191695 -0.10923293 0.9940801
0.72304237 0.6187073 -1.0833931 -2.8703308 -0.43097925 -1.3267252 0.12142869 -0.08528591
-0.5785433 1.5962875 0.5492751 0.7574637 -0.54844415 -0.10082982 -0.2339404 -0.31943393
-0.5766781 -1.119692 0.43867263 0.60672563 0.046895236 -3.8172987 -0.93503726 -1.5419052
-0.30552322 0.11971296 -0.19145787 -0.8805546 -0.94260466 -0.38549542 -0.3218339 -1.884891
-1.2639638 -0.024824522 0.6077586 0.32845533 -0.032964516 -0.13113566 0.047568757 -0.10833241
-0.7351931 -0.085891835 0.31928128 1.3031563 1.5412216 -0.052994683 -1.0730528 -0.39694297
-0.09758709 -0.11809619 -0.27630487 -0.28718516 -0.98356915 0.13804273 -0.50788456 -0.7523138
-1.0290589 -0.16504304 -1.1235377 -0.7911236 -0.8590604 -0.092928596 -0.41853762 -0.94557375
-0.82385844 -0.8420572 -0.038077477 -1.8093767 -2.0376422 0.516475 0.96279114 0.44256938
0.031539526 0.8035315 -0.15974684 -3.3220837 -0.77914256 -1.3577316 0.09847737 -0.7178252
-2.1162589 -0.600408 0.28571355 -0.2997887 0.6690192 1.7828325 0.23104724 -0.36764568
-0.055694476 -0.3668692 0.70382637 -0.9746426 -2.1416295 -0.59828323 -0.12215445 -0.5269111
-0.30749834 0.14291394 -0.17345186 -0.14519922 -1.098124 -0.2717313 -0.5496267 -1.4532057
-1.432456 0.9763705 1.0952914 0.95065325 -0.02112279 -0.2418275 -0.02961342 -0.20154586
-0.7317246 -0.58216405 -0.023636108 -0.1551684 -0.5073706 -0.67594266 -1.2106705 1.4421055
-0.14556406 -0.9652411 -1.9096446 -0.5241637 0.86775553 0.03962721 -0.61830074 0.09151735
0.3470868 0.2767484 -0.3085934 0.2360533 -0.58657354 -0.26696864 -0.33058247 0.12049766
-0.11276943 -2.1582215 0.3439309 1.6521965 0.21461879 -3.747951 -0.5927401 -1.770269
-0.73061466 -0.35448444 -0.58569175 -0.37183678 -0.4034798 -0.8273666 0.39855585 -2.0916333
-1.698899 0.42820525 0.10644514 0.036852036 -0.55357903 -0.0024390444 -0.616795 -0.15174744
-0.9102227 -0.34392074 1.0134444 -0.1207021 -2.573037 -0.8798625 0.41947562 -0.685503
-0.98955 -0.12352163 1.3819143 0.3300716 0.20368469 1.0559554 -0.8395176 -0.9028338
0.92511374 2.2936118 0.021424538 1.1752876 -0.62438405 0.20778683 0.38006437 0.53840005
-0.18770555 0.6161478 -0.71624315 -2.4873106 -1.1258813 0.1409369 0.3982556 0.5291134
-0.19685471 -2.8065815 -1.2855529 0.5759653 0.2692203 0.43298146 -0.5513872 -0.90006274
-0.41639036 0.010120317 -0.8546646 0.21443205 1.0515438 2.7199886 0.53234434 -0.21013366

input_to_hidden.bias f4 [220]
00000000: 7376 2abe d32e 66bf b09b 40bf 2733 d2be
00000010: f17f 51be 6851 0fbd e24e 4e3e fcb7 18be
00000020: 5a6c eb3e e867 f33d 95b0 2cbf 2e1e c43e
00000030: 6a50 8abf 56e9 e7bd 2157 43bf 122c cdbe
00000040: acea 60bf 4eea c2bf dfdf 98bf 59f1 6ebe
00000050: 6754 bb3e 32db d43d 68ad 0bbe 641c bd3e
00000060: 3666 22bf d0d1 7bbe b718 98bf 94bd 3abe
00000070: 93ea 1d3e 8aa8 05bf d0b1 4ebf d093 79be
00000080: 2a93 f5be 7a5a 66be 9fe3 35bf 7d20 37bd
00000090: 3045 d1be 965b 393e 67b4 0fbf 2276 113d
000000a0: 239c 89bd 9cbe f3be cc02 cbbd 0cf3 73be
000000b0: 12ef 13bf c72c 80be b55d 563e 04dc 2a3c
000000c0: 9fd7 3bbe 2077 6abf 9938 bdbe 0144 153e
000000d0: 1e1f 5abf f5c0 c7be 3521 a1bd d8eb 04be
000000e0: d742 81be a64a 9fbe bb17 983d f742 853d
000000f0: 21b8 c93b a978 90be 3c14 cebe 479c 2bbf
00000100: 739d 7cbf 9870 613d 4d20 babe 55a8 82bf
00000110: 27db 14bf 5ef2 25bf 86a7 abbd 8033 27be
00000120: 7125 fcbd a912 54be b525 ecbd 853c c13e
00000130: fd60 9b3d d79c 94bf 1a19 193e 553f 95be
00000140: 634a b2be ca1a 42be e81a 39bf 91d3 453e
00000150: 40e9 59bf 3b7b 5f3e b3e3 87bf 2d5c f7be
00000160: a378 07bf 6524 20be c033 f9be 945b 323e
00000170: d66a 62bf b0da b9be eb8e 52bf 18dc aebe
00000180: b60e 6fbd 2924 42be c5de 78bf cfce 51be
00000190: 42ab 3cbe 1902 c3be 82e9 cabd 42c5 cd3d
000001a0: c68d e13c 6724 2f3d a439 953d ac2f 8cbe
000001b0: 0baa 8fbf fefd 94bd 59c9 c7bb e4f1 dbbd
000001c0: 0a18 e7bd 40b0 babe 868e 653d 49a9 6bbf
000001d0: 881e 1abf 4fd5 94bd 2d99 bc3d a673 10bf
000001e0: 4f6c fe3e 5744 503e ed5f cabe aa83 19bf
000001f0: 3772 32be 907e 03bf 43a5 61bf 7d5c 803d
00000200: 817b 32bf a938 dabe 352f d03d 0741 7dbf
00000210: 384b 81bf 1cce 0cbe ccb8 713e a274 143e
00000220: e6ef 8b3e bce6 5b3d 447f 18bf ceca 59bf
00000230: a59b 40bf 9df1 ec3d 1a34 803e 7d91 cb3c
00000240: e68c dbbe e398 97bf 874b dfbd 8c2f 26bf
00000250: 29a6 11be 213c 39be 16a6 e3be df48 49bf
00000260: f038 56bc 54f3 f5bd c5bc 4f3e fa1e 48bf
00000270: 44f8 8bbf 2721 bfbf aed6 553e 974c a23e
00000280: 0b18 b93e 6b5e 953e 4381 29bc bead 0ebf
00000290: d033 39bf e942 efbe 5626 5b3d 3fe8 89be
000002a0: f67b 843d 952a dfbd 2c83 5bbf 4ffa 233e
000002b0: 5572 063f bef2 1ebf b200 f43e 3526 c4be
000002c0: 50f9 43bf 6691 e5be 48d6 3ebe e367 acbf
000002d0: 2bbd 41be 900f 38bd b356 92be 91e6 cb3d
000002e0: 837e e1be f55f 18bf a84c 29bc bcdc 20bf
000002f0: a994 f3be 4bcb 4fbf 3ebd d6bd 69d4 67bd
00000300: c3da 12be 928a 8cbf 48c6 eebe d478 af3e
00000310: 27dd 23bf 6a77 12be 25a1 56bd 543d 2cbf
00000320: 4f65 bbbf f156 98be 1144 b8be 8ace 2fbf
00000330: 0e68 983d 56cd d4bd 079a 933c 386b 82be
00000340: a025 ebbd f95c b2be 59c6 b4be 6cc2 3fbf
00000350: 67c7 99be f73c 443e ccbc c2be 882f 4fbe
00000360: d5ec a7be 3e52 2cbe a040 15bf 86e9 1bbe
-0.16646747 -0.899152 -0.7523756 -0.4105465 -0.20458962 -0.034989744 0.20147279 -0.14913934
0.45981103 0.11885053 -0.6745694 0.38304275 -1.080579 -0.11323802 -0.76304823 -0.40072685
-0.8785808 -1.5227754 -1.194332 -0.23334254 0.3658783 0.10393371 -0.13640368 0.36935723
-0.6343721 -0.24591756 -1.1882542 -0.18236381 0.15421514 -0.52210295 -0.8074007 -0.24372792
-0.4796384 -0.22495452 -0.7105045 -0.044708718 -0.40873098 0.18101344 -0.5613465 0.03551305
-0.06719234 -0.4760636 -0.09912643 -0.23823184 -0.5778667 -0.25034162 0.20934184 0.010428432
-0.18343972 -0.9158802 -0.36957243 0.14576723 -0.8520373 -0.39014402 -0.07867662 -0.12980592
-0.25246307 -0.3111164 0.07426401 0.06506913 0.006155983 -0.28217056 -0.40249813 -0.67035335
-0.9867775 0.05503902 -0.3635277 -1.0207621 -0.581469 -0.6482295 -0.08381562 -0.1632824
-0.12311829 -0.20710243 -0.115306295 0.37741485 0.075868584 -1.1610364 0.14950982 -0.2914988
-0.34822378 -0.18955532 -0.7230668 0.19318987 -0.85121536 0.21824352 -1.0616363 -0.48312512
-0.5291845 -0.15638883 -0.48672295 0.17417747 -0.8844427 -0.36299658 -0.82249326 -0.34152293
-0.05836364 -0.18959107 -0.9721492 -0.20489047 -0.18424705 -0.38087538 -0.09907819 0.100473896
0.027533423 0.042759325 0.07286385 -0.2738012 -1.1223768 -0.07275008 -0.0060970006 -0.10739496
-0.11283882 -0.36462593 0.056044124 -0.92055184 -0.60202837 -0.07267248 0.092089035 -0.56426466
0.49692008 0.2033857 -0.3952631 -0.5996653 -0.17426382 -0.51364994 -0.88142794 0.06267641
-0.697197 -0.42621353 0.10165254 -0.9892735 -1.010108 -0.137505 0.2360565 0.14497617
0.27331465 0.053686842 -0.5956919 -0.8507508 -0.75237495 0.115695216 0.2503975 0.024849648
-0.42880934 -1.1843532 -0.109030776 -0.649163 -0.14223541 -0.18089344 -0.4446265 -0.7862682
-0.013075098 -0.12009302 0.20286854 -0.78172266 -1.093514 -1.4931992 0.20882675 0.31699058
0.36151156 0.29173598 -0.01034576 -0.5573386 -0.72344685 -0.46730736 0.053503357 -0.26935002
0.06468956 -0.10896794 -0.8574703 0.16013454 0.52518207 -0.62089145 0.4765678 -0.383104
-0.76552296 -0.44837493 -0.1863643 -1.3469204 -0.18919818 -0.044936717 -0.2858177 0.099560864
-0.44041833 -0.5952142 -0.010333218 -0.62836814 -0.47574356 -0.81169575 -0.10485314 -0.056599054
-0.14341263 -1.0979788 -0.46635652 0.34271872 -0.64009327 -0.14303365 -0.052399773 -0.6728108
-1.4640292 -0.2975383 -0.3598943 -0.6867453 0.07441722 -0.10390727 0.018017782 -0.25472426
-0.11481786 -0.34836558 -0.35307577 -0.7490604 -0.30034944 0.19163881 -0.38034666 -0.20232975
-0.32797876 -0.16828248 -0.58301735 -0.15225801

hidden_to_output.weight f4 [1, 220]
00000000: 890e 6dbe 536e 32bd 6ac8 ddbc ab61 e03e
00000010: 51c6 18be 93a0 2f3f 50ea 2a3f a983 83be
00000020: 6d1f 8e3f 7af2 9bbd f6a7 a8bd 2f47 a53f
00000030: 3cb9 b8bc 3333 e23e e784 87bd f1f5 91be
00000040: 9c1a f4bd d522 883a c578 60bb 4e5c 713f
00000050: 28bb 6b3f b2f8 903e 2307 a5bd 397e e63e
00000060: 5465 85bd 4871 6a3f 7f5b 87bc 89d7 30bf
00000070: 6f7d 043f 89d3 d5bc fedf 06bf 9cf3 e03f
00000080: 5fdf 0ebe bd7d ee3e 1a2e 58bd 7f48 613f
00000090: 3a65 e4bd 78b5 89be 68f1 5ebd 92e3 2a3f
000000a0: 9630 393f 808e 9bbc 292a 9dbe de6a 1c3f
000000b0: 16c7 9cbc 9f09 263f 80f1 cc3e dd46 b73f
000000c0: cdbb 123e 0820 a9bd 6fdb abbd 601b d8be
000000d0: d089 99bd 89c8 fe3e bbc5 b53f 364e 823e
000000e0: 0cd1 923f 7fff f83e be69 e53e f8a1 b3be
000000f0: 4e0c d83e 80a4 e83d 6f13 d43c 652f 81bd
00000100: a9fa adbc 5472 bcbe 1754 de3e 9382 a1bc
00000110: 30f1 1c3f f02e 8cbc 8c49 15be 6354 0abe
00000120: bb6f fe3e e185 2c3f 03da 92be e532 aa3f
00000130: db11 a43f f29b 66bd e2a6 fdbe cb56 6c3f
00000140: 1192 823e 1e1d 46bd f0fe 80be 8a59 bf3f
00000150: 7459 dbbc b6fe 57be 9efe 3ebb 5820 8bbe
00000160: 57a8 e83f 866a 1c3f 7f18 88be b82d 2ebe
00000170: 874a 57bd d227 0e3d 5ad9 cdbd e08b bbbd
00000180: 0fb2 833f 1c14 1f3f 724b dfbc db5d bfbe
00000190: 6bc5 7fbd 8c0f edbd 62e6 663f f3b2 fe3e
000001a0: 6f8d 9abd e5f5 1d3f ed78 073e b626 c73c
000001b0: caee 2bbc 513b 113f 7e73 7dbd 68ab b3be
000001c0: 21b4 10be 8520 47bd 78d6 2d3f 3d9a 34be
000001d0: 8ad7 0fbe 72e5 94be e763 893e 2234 ecbd
000001e0: fca3 26c0 15ab ebbe ec6d 49be 106b 83bd
000001f0: 1f0f 93bd 434b 2a40 35ae 22bd 9dae d63f
00000200: 2a8b dc3c 028c 3ebd a167 683e 4e48 c3bb
00000210: 489c eabc 23dc 3d3e ca71 e93e 36ef c53e
00000220: b6a0 b83e a535 833f 2ccd af3e 05ac 16bd
00000230: 96e7 57bd 0b9d 48be 5aa7 1dbf c51d a53e
00000240: 7244 eebc 2a14 2839 800f b43e b5e9 79bd
00000250: 1e69 5ebe fcaa d9be 9c3f 5b3f c65f fabd
00000260: f872 96be 414b 693f d031 0bc0 3148 163d
00000270: 763c f4bd 37ea d93c 9b2e 833e 3349 f6be
00000280: f9d3 2e3e 4a30 d2be e356 2a3f 76ca 4ebe
00000290: ea47 a2be 9384 acbd 3f20 663e 83e5 80bd
000002a0: 84d3 8b3e 8f9b 423e 3bc4 0fbe af4e 5f3e
000002b0: ea3c 00bf ba1c bebc efb1 0fbf e997 2ebe
000002c0: 52aa 4abc 5e3d 92be 9691 88be b209 8bbd
000002d0: cdb0 58bd dab4 df3e 2c23 43be 0a64 aa3e
000002e0: e9c4 a4bd 775a 07bd 324d 763f be31 80bd
000002f0: e086 4e3f 3286 acbd 1209 aebd b6c5 e1bd
00000300: 812f 763e e13f 39be fa2f 69be 84a3 24bf
00000310: 6546 1bbd ad9c 153e ba9c 313e 5a53 8cbc
00000320: 9210 edb9 344f 513e f84c 70bd d35d 1ebd
00000330: 36f3 053f 5b14 7d3e dafd 103f 0e5e ad3d
00000340: bc17 33bd f581 a7be 69d1 8bbd 7626 283d
00000350: 9b73 9dbd dba4 673d 4744 093f 72bd 9cbe
00000360: e6be e03e 7959 3c3e 2d85 e6bc c073 563f
-0.23150076 -0.043562245 -0.027073104 0.43824515 -0.14919402 0.6860439 0.6676378 -0.25686386
1.110334 -0.07614608 -0.08235161 1.2912349 -0.022549264 0.44179687 -0.06617146 -0.2850795
-0.11919138 0.0010386357 -0.0034251672 0.9428147 0.9208245 0.2831474 -0.08058002 0.45018175
-0.065134674 0.91579103 -0.01652312 -0.6907888 0.51753896 -0.026101844 -0.52685535 1.7574344
-0.13952397 0.46580306 -0.05277834 0.88001245 -0.1115212 -0.26896262 -0.05442944 0.66753495
0.7233976 -0.018988848 -0.30696228 0.61100566 -0.0191379 0.6485843 0.40028 1.4318501
0.14329453 -0.082580626 -0.08391463 -0.42208385 -0.07496989 0.4976237 1.4200968 0.25450295
1.1470046 0.48632428 0.44807237 -0.3508451 0.42196888 0.11359501 0.025888173 -0.06307868
-0.021237688 -0.36805975 0.4342353 -0.019715583 0.6130552 -0.017112225 -0.14578837 -0.13508753
0.4969462 0.67391783 -0.28681955 1.3296782 1.2817949 -0.056301065 -0.49541384 0.92319936
0.25502065 -0.048367612 -0.25194502 1.49492 -0.026776053 -0.21093258 -0.0029143463 -0.27173114
1.8176373 0.6110004 -0.2658119 -0.17009628 -0.05256131 0.034705944 -0.10051222 -0.091575384
1.0288714 0.6214006 -0.027257655 -0.37376294 -0.06244413 -0.11575231 0.90195286 0.49745902
-0.075465076 0.6170333 0.13229723 0.024310451 -0.0104939435 0.56731135 -0.06187772 -0.3509171
-0.14131214 -0.048614997 0.6790538 -0.17636962 -0.14047065 -0.29081303 0.26834032 -0.11533381
-2.6037588 -0.46028963 -0.19670838 -0.06416905 -0.071806185 2.6608436 -0.039716918 1.6772038
0.026921827 -0.04652024 0.22695781 -0.005959547 -0.028638974 0.18541007 0.45594627 0.38659066
0.36060113 1.0250746 0.3433622 -0.036785144 -0.052711092 -0.19591157 -0.61583483 0.32249275
-0.029085372 0.0001602924 0.35168076 -0.061013896 -0.21719787 -0.42513263 0.85643935 -0.122252986
-0.2938459 0.91130453 -2.1749153 0.03668994 -0.119255945 0.02660094 0.25621495 -0.48102722
0.17073049 -0.41052467 0.6653883 -0.2019442 -0.3169549 -0.08423724 0.22473238 -0.06293776
0.2730981 0.19004653 -0.140397 0.21807359 -0.5009295 -0.023207057 -0.5613088 -0.17050137
-0.012369709 -0.28562444 -0.26673573 -0.067889586 -0.052902985 0.43692666 -0.19056386 0.3327945
-0.0804537 -0.03304526 0.9621154 -0.062594876 0.8067455 -0.08424033 -0.08497824 -0.110240385
0.24041559 -0.18090774 -0.22772208 -0.64312005 -0.03790893 0.14610548 0.17344943 -0.017129589
-0.00045216508 0.2044037 -0.058667153 -0.038663696 0.52324235 0.24714796 0.56637347 0.08465205
-0.043723807 -0.32716337 -0.06827051 0.041052304 -0.076880656 0.056553703 0.5361981 -0.30613285
0.43895644 0.18393506 -0.028139675 0.8377037
