trainingruns/1HiddenNoDropout/submission/saved/saved_model.pkl (torch, 9136 bytes, 3 tensors)

input_to_hidden.weight f4 [220, 6]
0.8709466 2.2439888 -0.3702566 -0.47173834 0.18520123 -0.29297075 -0.067531645 -0.48875242
-0.063204326 -0.3926297 -0.68720484 -0.16431263 -0.4177016 -1.3833795 -1.9018294 0.020357957
0.15089598 0.11320205 0.5646748 2.9703524 0.83552384 -0.616132 -0.17930631 -0.49508697
-0.4448003 -0.906511 -0.35201722 -0.96293014 -0.6878486 0.027712557 -2.4569635 -3.2802796
0.94059837 -0.111469366 0.31993148 1.251995 -0.7230729 -0.96492994 -0.6284101 -0.82441825
-0.42743886 0.27977294 -0.12778135 -1.2269658 -1.7294083 0.5429504 0.6968011 0.2944544
-1.6304533 -2.0366461 0.49644685 -0.32254773 0.046113007 0.5505911 -0.82980716 -0.0442554
0.13511124 0.5305446 0.7894017 -5.565217 -0.74717027 -0.68626106 -0.3755094 -0.31832278
-0.16159414 -1.0259004 -0.18024497 -0.56371874 -0.1745786 -0.2838944 -0.7357132 -0.29783574
-0.66959465 -0.5085202 -0.4121725 -0.27874568 -0.54613847 -0.1958057 -0.115497395 0.016977832
-0.17491634 -0.16849825 -0.8085683 0.14552672 1.0993192 0.077755034 -1.2118882 1.0581936
0.48600417 0.23093231 -2.025903 -3.7019887 0.8448781 0.55460733 -0.011694297 1.2716392
-0.33460724 -0.6186629 -0.30480897 -0.74121535 -0.516083 0.04911781 -0.11446975 0.5475326
1.3442582 -2.4645474 -2.0653718 -1.5313333 -1.7595932 -1.4673791 0.68013006 -0.37676436
0.20041518 0.4750818 -0.45927218 -0.47227874 -0.60992736 -0.5031119 -0.6886967 -0.41910097
0.12999414 0.5860744 0.15648751 -0.28623402 -1.1936346 -0.2730734 -1.3087847 -2.3795543
1.0022815 -0.109737016 -0.2938736 0.45464066 -0.052302815 0.5757444 -0.8796059 -2.3514264
-0.03535979 -0.76180863 -1.1028761 -0.22523452 -0.33096564 -0.41190258 -0.38371465 0.10543947
0.3158726 1.2624999 1.4175911 -0.26450354 -1.2128366 -0.6114735 -0.100415885 0.006894377
-0.18204874 -0.020239592 -0.8415671 0.42454648 0.4852446 -0.47370663 -2.13972 -1.0349542
0.06288488 -0.49838609 0.1449355 0.24069513 -0.6784899 -2.6914659 -0.28148332 -0.9482971
0.3067851 0.40124893 0.28025258 -0.5883395 -0.8740035 -0.16161673 -1.302325 -2.0125222
-0.31039205 -0.28927314 0.6398887 0.58624214 -0.047101613 -0.11267784 0.11878441 -2.7292163
-1.5418186 -1.326362 0.60989183 0.64880884 -0.46097356 -3.4325442 -0.25220314 -1.4169593
0.35987678 0.645189 0.84079385 -2.7158182 -2.3999052 -1.8823998 -0.79588324 -0.3143057
-1.0414091 -1.0384026 -1.092782 -0.5441113 -0.74665797 -0.743599 0.30945736 0.4823804
-0.34174255 0.7410189 -0.64352983 -1.2988858 -0.9184222 -1.3977793 -0.9786736 -0.5300862
0.34773916 -1.3298655 -2.277515 -0.25503173 0.43594578 -0.19922277 0.2677896 -0.059605587
-1.4158136 -1.9270365 0.13605268 -0.6138741 -0.525741 -2.369097 -1.0076334 0.59794146
-0.003539141 0.36540964 -0.13007568 0.48649535 0.14492153 -0.64153916 -0.8228852 -0.64760137
-0.875749 -1.1255956 1.0791643 2.455171 -0.20493571 1.438184 0.8124831 -0.70101005
-3.0243175 0.28127652 0.06803852 -0.28856543 -0.38389978 -1.3910125 -1.3817672 -0.3535306
00000000: 5bf6 5e3f 839d 0f40 4692 bdbe b087 f1be
00000010: 64a5 3d3e 4300 96be 084e 8abd c23d fabe
00000020: 4571 81bd c306 c9be a8ec 2fbf 9241 28be
00000030: fcdc d5be 9412 b1bf 256f f3bf bbc5 a63c
00000040: 7a84 1a3e 7ad6 e73d 878e 103f 411a 3e40
00000050: e4e4 553f d4ba 1dbf 139c 37be 0a7c fdbe
00000060: ddbc e3be 1b11 68bf 9a3b b4be 9782 76bf
00000070: d916 30bf 7205 e33c e43e 1dc0 1af0 51c0
00000080: 0ecb 703f 0d4a e4bd 0fce a33e 5f41 a03f
00000090: 4e1b 39bf a605 77bf 7cdf 20bf 130d 53bf
000000a0: 44d9 dabe 663e 8f3e 1dd9 02be 370d 9dbf
000000b0: 405d ddbf ccfe 0a3f 8f61 323f bac2 963e
000000c0: b2b2 d0bf 6958 02c0 482e fe3e fa24 a5be
000000d0: fee0 3c3d 8af3 0c3f 3e6e 54bf 2645 35bd
000000e0: 9a5a 0a3e c5d1 073f 3b16 4a3f 4216 b2c0
000000f0: 8d46 3fbf ceae 2fbf c542 c0be 34fb a2be
00000100: ef78 25be b450 83bf 2392 38be df4f 10bf
00000110: bcc4 32be 9b5a 91be b357 3cbf ed7d 98be
00000120: 8e6a 2bbf 612e 02bf 4608 d3be c1b7 8ebe
00000130: bbcf 0bbf 4a81 48be e689 ecbd 1815 8b3c
00000140: 451d 33be ce8a 2cbe 55fe 4ebf f504 153e
00000150: 7eb6 8c3f 083e 9f3d 271f 9bbf e372 873f
00000160: 8ad5 f83e 8579 6c3e 65a8 01c0 62ed 6cc0
00000170: ee49 583f bffa 0d3f 7099 3fbc 13c5 a23f
00000180: a451 abbe b160 1ebf ec0f 9cbe 4ac0 3dbf
00000190: 041e 04bf c22f 493d 1e6f eabd 192b 0c3f
000001a0: a710 ac3f 25bb 1dc0 0d2f 04c0 bb02 c4bf
000001b0: 5a3a e1bf 14d3 bbbf 011d 2e3f 42e7 c0be
000001c0: a339 4d3e ec3d f33e b925 ebbe 85ce f1be
000001d0: 3324 1cbf f1cb 00bf 6d4e 30bf 6794 d6be
000001e0: 2f1d 053e f908 163f 433e 203e 448d 92be
000001f0: 05c9 98bf 47d0 8bbe 4286 a7bf 9e4a 18c0
00000200: c34a 803f cdbd e0bd 9a76 96be a9c6 e83e
00000210: 7a3b 56bd fc63 133f da2d 61bf c57d 16c0
00000220: 6dd5 10bd e405 43bf 0b2b 8dbf e1a3 66be
00000230: 5474 a9be e5e4 d2be 3f76 c4be a6f0 d73d
00000240: 0eba a13e 9999 a13f a073 b53f 026d 87be
00000250: 3b3e 9bbf 8789 1cbf d8a6 cdbd 3aea e13b
00000260: fc6a 3abe 80cd a5bc f170 57bf 285e d93e
00000270: fb71 f83e ad89 f2be 2cf1 08c0 6179 84bf
00000280: cac9 803d 762c ffbe f969 143e c978 763e
00000290: 84b1 2dbf fa40 2cc0 951e 90be 99c3 72bf
000002a0: f012 9d3e 8070 cd3e 447d 8f3e 6b9d 16bf
000002b0: b2be 5fbf db7e 25be 96b2 a6bf 2acd 00c0
000002c0: b5eb 9ebe 9c1b 94be bfcf 233f f713 163f
000002d0: 9fed 40bd a4c3 e6bd 3e45 f33d 7bab 2ec0
000002e0: 505a c5bf 3bc6 a9bf df21 1c3f 5618 263f
000002f0: ba04 ecbe ceae 5bc0 c520 81be ec5e b5bf
00000300: c541 b83e 1b2b 253f 443e 573f f7cf 2dc0
00000310: 0c98 19c0 7af2 f0bf 01bf 4bbf adec a0be
00000320: e54c 85bf 60ea 84bf 48e0 8bbf e14a 0bbf
00000330: fa24 3fbf 815c 3ebf 3271 9e3e 90fa f63e
00000340: e1f8 aebe 6ab3 3d3f 5fbe 24bf e441 a6bf
00000350: b81d 6bbf 6fea b2bf 5a8a 7abf bbb3 07bf
00000360: de0a b23e 0839 aabf cec2 11c0 8593 82be
00000370: 4934 df3e 0e01 4cbe b81b 893e fd24 74bd
00000380: 6139 b5bf 22a9 f6bf 6551 0b3e da26 1dbf
00000390: f696 06bf 499f 17c0 22fa 80bf b112 193f
000003a0: eff0 67bb f916 bb3e 8f32 05be eb15 f93e
000003b0: 4f66 143e e93b 24bf 9ba8 52bf 34c9 25bf
000003c0: 1631 60bf 8413 90bf 0e22 8a3f 8621 1d40
000003d0: abda 51be 6a16 b83f e4fe 4f3f 6575 33bf
000003e0: 6b8e 41c0 7a03 903e c857 8b3d d9be 93be
000003f0: 838e c4be b30c b2bf bfdd b0bf f601 b5be

input_to_hidden.bias f4 [220]
0.123039894 -0.6307919 0.12281137 -0.12554306 0.32407123 -0.5762508 -0.30460495 -0.30249593
-0.3266471 0.0047211223 -0.41361728 -0.378714 -0.77166325 -0.92689306 -0.18478453 -0.7423941
-0.36531562 -0.43710414 -0.55029917 -0.79367745 -0.04278869 -0.2869253 -0.41952473 -0.66938174
-0.1784472 -0.8841859 0.05694087 -0.12853833 -0.38582337 -0.4325535 0.1026037 0.13269487
-0.31848308 -0.056301117 0.18773527 -0.25333995 0.22541125 -0.43067572 -0.020036517 -0.37874252
0.050118405 -0.0016153742 -0.042890728 -0.4362856 -0.75832903 -0.20675184 -0.2995423 0.120289065
0.24532285 -0.015741995 -0.4632611 -0.19917555 -0.8887597 0.31713334 -0.62104845 -0.19660804
0.24885194 0.028106404 -1.2070724 -0.13162202 0.1822862 0.06853179 -0.18028161 -0.45991525
-1.304201 -0.2125469 -0.91724735 -0.35300598 -0.349226 -0.20343246 -0.13346058 -0.12263206
0.12392144 -0.58950585 -0.15974133 -0.09848174 -0.24500483 -0.02739853 -0.1520336 -0.58483464
-0.06974269 0.04264743 -0.9203733 0.05814489 -0.21306168 -0.6986055 -0.2326729 -0.86342454
0.24612764 -0.31134462 -0.6669391 0.33453965 -0.669505 -0.2963002 -1.090998 -0.9022605
0.034274966 -0.12678109 -0.3754266 -0.94055474 0.14636219 -0.18989958 0.030169938 0.19271421
0.28721848 -0.35348216 -0.10520661 -0.27824882 0.14292657 -1.0303761 -0.98319495 -0.5977485
0.06626106 -0.5171114 0.25956836 0.02563182 -0.27053833 -0.43620145 -0.36711478 0.22005217
0.3516354 -0.8239328 -0.878883 0.22026412 -0.2308406 0.13197358 -0.026421737 0.1137442
-0.4011625 0.010948174 -0.0021158098 -0.35326326 -0.2254443 -0.040149156 -0.4717652 -0.08201438
0.2683936 -0.5118885 0.101615965 -0.25122064 -0.21843928 0.33083925 -0.03248115 -0.28338403
-0.50058365 -0.14260659 -0.045376588 -1.046813 0.23747766 0.1313392 -0.3322292 -0.04341418
-1.1434331 -0.19600359 -1.0387869 0.07538852 -0.16525081 -0.39999974 -0.29788482 -0.34689564
-0.47298387 0.34018058 -0.69085693 0.47839737 -0.2592187 -0.3812403 -0.088074766 -0.6257505
-0.66261435 -0.6453217 -0.41226745 0.12042684 0.028255181 -1.3298011 -0.23452179 -0.12106948
-0.2207249 -0.79832447 0.15687306 -0.13512734 -0.4305937 -0.40302128 -0.1906132 -0.22509062
-0.11388849 -0.8346621 0.23901473 -0.19145925 0.09264145 0.09685866 -0.14026326 0.13198589
0.051470794 0.05295313 0.10558638 -0.427367 -0.65036535 -0.0779189 -1.1730856 -0.19171666
-0.5987091 -0.45162904 -0.26615164 -0.6017333 -0.11275854 -1.0189643 0.104722254 0.08814537
-0.40136433 -0.5260939 -0.19034488 -0.29881603 -0.8019389 -0.37158197 -0.34930465 -0.3104965
-0.23093408 0.17378981 -1.3031535 -0.25742042
00000000: 57fc fb3d 947b 21bf 8784 fb3d 5c8e 00be
00000010: aaec a53e 2c85 13bf 2ef5 9bbe bfe0 9abe
00000020: 4a3e a7be a5b3 9a3b a5c5 d3be cde6 c1be
00000030: b98b 45bf dd48 6dbf 2838 3dbe 8a0d 3ebf
00000040: a60a bbbe 1dcc dfbe 68e0 0cbf 722e 4bbf
00000050: 3243 2fbd dfe7 92be f2cb d6be 9a5c 2bbf
00000060: ddba 36be 025a 62bf d43a 693d 8d9f 03be
00000070: a48a c5be a777 ddbe e321 d23d 2ae1 073e
00000080: 3710 a3be 009c 66bd ad3d 403e c6b5 81be
00000090: 35d2 663e 8781 dcbe 9f23 a4bc 8aea c1be
000000a0: f548 4d3d f7ba d3ba 30ae 2fbd d360 dfbe
000000b0: da21 42bf c1b6 53be 9c5d 99be 1d5a f63d
000000c0: ea35 7b3e 5bf5 80bc 8f30 edbe adf4 4bbe
000000d0: c185 63bf 4d5f a23e 08fd 1ebf 9e53 49be
000000e0: 0bd3 7e3e 673f e63c 5981 9abf ecc7 06be
000000f0: 3ca9 3a3e 655a 8c3d be9b 38be 037a ebbe
00000100: 0ff0 a6bf e5a5 59be b9d0 6abf 33bd b4be
00000110: c0cd b2be 9950 50be e4a9 08be 8426 fbbd
00000120: 86ca fd3d dbe9 16bf 3b93 23be cbb0 c9bd
00000130: 8ce2 7abe e272 e0bc b2ae 1bbe b9b7 15bf
00000140: 41d5 8ebd 12af 2e3d 969d 6bbf 5629 6e3d
00000150: d72c 5abe cfd7 32bf ce41 6ebe 6409 5dbf
00000160: e208 7c3e 9068 9fbe 85bc 2abf c848 ab3e
00000170: ae64 2bbf a9b4 97be d3a5 8bbf 8bfa 66bf
00000180: e863 0c3d e7d2 01be ea37 c0be 32c8 70bf
00000190: f8df 153e 0975 42be f226 f73c e056 453e
000001a0: 4d0e 933e 9dfb b4be 9076 d7bd a176 8ebe
000001b0: 585b 123e 5de3 83bf aab2 7bbf 0c06 19bf
000001c0: e1b3 873d 6a61 04bf 25e6 843e d3f9 d13c
000001d0: 0084 8abe cc55 dfbe 78f6 bbbe 5b55 613e
000001e0: 8e09 b43e 43ed 52bf 7afe 60bf eb8c 613e
000001f0: 7a61 6cbe 1524 073e 6672 d8bc b8f2 e83d
00000200: 2c65 cdbe f85f 333c 66a9 0abb ecde b4be
00000210: dfda 66be 7173 24bd 358b f1be 28f7 a7bd
00000220: e36a 893e 200b 03bf 081c d03d fe9f 80be
00000230: 8cae 5fbe c363 a93e f40a 05bd b617 91be
00000240: 4026 00bf 7607 12be cddc 39bd f8fd 85bf
00000250: 582d 733e c97d 063e f219 aabe 11d3 31bd
00000260: 045c 92bf 2ab5 48be f8f6 84bf 4c65 9a3d
00000270: 8237 29be c4cc ccbe 5c84 98be 4e9c b1be
00000280: f12a f2be 262c ae3e 00dc 30bf 80f0 f43e
00000290: 50b8 84be ee31 c3be 8b60 b4bd 2f31 20bf
000002a0: 18a1 29bf ce33 25bf b814 d3be 59a2 f63d
000002b0: 6977 e73c ec36 aabf 7b26 70be 47f3 f7bd
000002c0: b505 62be fe5e 4cbf 55a3 203e d25e 0abe
000002d0: c776 dcbe ce58 cebe 1b30 43be 287e 66be
000002e0: 5e3e e9bd 6aac 55bf 47c0 743e e50d 44be
000002f0: cdba bd3d d55d c63d 2ca1 0fbe 4f27 073e
00000300: 0ad3 523d 62e5 583d ac3d d83d d9cf dabe
00000310: 587e 26bf f293 9fbd ab27 96bf 5f51 44be
00000320: 0045 19bf ec3b e7be 0745 88be 320b 1abf
00000330: f3ed e6bd 6c6d 82bf 9f78 d63d 8f85 b43d
00000340: a07f cdbe 17ae 06bf c5e9 42be 6afe 98be
00000350: de4b 4dbf fe3f bebe 0fd8 b2be 66f9 9ebe
00000360: fc79 6cbe f5f5 313e bccd a6bf 9ccc 83be

hidden_to_output.weight f4 [1, 220]
-0.14598848 -0.083777376 0.17067468 -0.32709688 -0.20988438 1.6254712 -0.2009005 0.5436648
0.52058387 -3.067337 -0.2559565 -0.10014423 -0.05792718 -0.10011731 -0.13358998 1.6492376
-0.3878901 0.7978334 0.37536898 -0.13466397 -0.15788926 0.52028525 0.26872104 -0.0032623215
-0.33781844 -0.14430538 0.32372946 0.32930058 -0.122735664 0.534926 0.25436214 0.9497931
1.1724577 -0.14173852 -0.07136556 -0.030334434 0.5174368 0.20980975 0.4816747 -0.038678743
-0.36438692 0.6855921 0.118079334 -0.17707749 -0.021406153 0.045424525 -0.16946912 0.48991725
0.2214816 0.4142674 -0.021942563 0.26054573 -7.99444e-05 1.4751728 -0.07286296 -0.26954937
0.31545225 1.1633286 -0.02650108 0.9665323 0.38825497 -0.061623633 0.784269 -0.040965617
0.0112685375 0.9613085 -0.120977685 -0.120794006 -0.18584816 -0.049941685 1.3857173 -0.16234201
0.9162282 -0.044197954 0.58063436 0.16118385 -0.35896865 1.0413995 -0.23012048 0.027889736
1.0400798 -0.33061033 -0.016681379 -0.08640346 -0.15119119 -0.007530958 0.6996894 -0.058260903
1.8784119 0.5948166 -0.08708463 -0.43475825 -0.045991916 1.3775535 -0.080762334 -0.039845556
-0.6332601 0.41631055 0.7322384 -0.098755546 -0.2298152 -0.11863471 -0.22482672 -0.48628277
1.1514683 -0.21789503 0.62468666 -0.13888742 1.6396645 -0.1981851 -0.028830038 0.013929503
0.34054378 -0.11730766 0.64429486 0.37711006 0.09374482 -0.1538072 -0.014661198 0.047616895
-1.6609286 -0.106620334 -0.042489722 -0.28567576 -0.6944757 -0.10195364 0.008577616 1.2699474
-0.07761217 -0.076010935 -0.2159247 -0.055307467 -0.503641 0.65265524 -0.13491242 0.23819663
0.8271594 -0.23665105 0.71247566 -0.39147922 -0.14665578 -0.21370548 0.040885124 1.2399247
-0.049308784 0.948689 0.07236635 -0.029656481 -0.12043064 -0.4605451 -0.0902847 0.027041445
-0.04203116 -0.196844 -0.069203876 0.8640454 1.3317926 -0.13384113 1.3258284 -0.059598587
-0.3584913 0.5232543 -0.05160684 0.41963285 -0.08022923 0.99572664 1.0394124 -0.005530828
0.25534377 -0.08872079 0.56343585 0.26958522 -0.12645842 -0.0014381338 -0.19311498 0.37219897
0.28216717 -0.08070942 -0.2719727 0.56534165 -0.08419018 -0.16173641 0.8030451 -0.16815048
-0.02988844 -0.15777625 -0.18661101 -0.50869995 0.66015464 -0.20448977 -0.11157194 0.15309279
0.43836713 -0.3329317 -0.3001092 -0.1686207 -0.0020457334 -0.20109986 -0.01349798 -0.40939066
-0.064632766 -0.24485774 -0.11063217 -0.15547487 -0.07384188 -0.011569238 -0.24703588 0.08744155
0.4074211 -0.027216736 1.3714626 0.3062093 -0.09842219 -0.22194889 -0.363287 -0.14690408
0.7841865 0.89618695 -0.002265089 -0.2281579
00000000: 017e 15be 7993 abbd 58c5 2e3e 3e79 a7be
00000010: eeeb 56be 710f d03f dcb8 4dbe 9e2d 0b3f
00000020: fc44 053f 404f 44c0 bb0c 83be 6b18 cdbd
00000030: 0d45 6dbd 4e0a cdbd d0cb 08be 381a d33f
00000040: 8899 c6be cf3e 4c3f 5d30 c03e 5ae5 09be
00000050: b9ad 21be 6a31 053f ce95 893e accc 55bb
00000060: 8af6 acbe cac4 13be debf a53e 169a a83e
00000070: d65c fbbd e9f0 083f c13b 823e a425 733f
00000080: 1813 963f e723 11be 1b28 92bd eb7f f8bc
00000090: bd76 043f 5ed8 563e 119e f63e 9a6d 1ebd
000000a0: ec90 babe f782 2f3f 94d3 f13d cd53 35be
000000b0: f55b afbc 110f 3a3d 5089 2dbe 6fd6 fa3e
000000c0: 13cc 623e db1a d43e e4c0 b3bc 4066 853e
000000d0: d3a7 a7b8 76d2 bc3f 2d39 95bd 6002 8abe
000000e0: f582 a13e f4e7 943f cb18 d9bc a96e 773f
000000f0: 5bc9 c63e 1069 7cbd dac5 483f 90cb 27bd
00000100: ac9f 383c 5018 763f 26c3 f7bd d962 f7bd
00000110: fb4e 3ebe a78f 4cbd 2f5f b13f fc3c 26be
00000120: ee8d 6a3f ea08 35bd 74a4 143f 610d 253e
00000130: bdca b7be 944c 853f b4a4 6bbe 0479 e43c
00000140: 5621 853f c245 a9be 63a7 88bc 4cf4 b0bd
00000150: ddd1 1abe 41c6 f6bb d81e 333f fca2 6ebd
00000160: cd6f f03f e745 183f 6d59 b2bd a298 debe
00000170: 0562 3cbd ac53 b03f b966 a5bd 1835 23bd
00000180: 551d 22bf a826 d53e fa73 3b3f 5940 cabd
00000190: ad54 6bbe c1f6 f2bd fa38 66be 0efa f8be
000001a0: 5063 933f e01f 5fbe 77eb 1f3f 8138 0ebe
000001b0: 87e0 d13f 09f1 4abe f92c ecbc 9238 643c
000001c0: c15b ae3e 003f f0bd 82f0 243f 9214 c13e
000001d0: 49fd bf3d a27f 1dbe 8535 70bc ef09 433d
000001e0: 4f99 d4bf c35b dabd b409 2ebd 1844 92be
000001f0: 29c9 31bf 12cd d0bd 2189 0c3c a38d a23f
00000200: 21f3 9ebd 9fab 9bbd 5d1b 5dbe 158a 62bd
00000210: 9eee 00bf 6a14 273f 7b26 0abe d1e9 733e
00000220: b8c0 533f a754 72be ce64 363f f76f c8be
00000230: ef2c 16be 9cd5 5abe 2977 273d dab5 9e3f
00000240: 02f8 49bd 48dd 723f cf34 943d 26f2 f2bc
00000250: 57a4 f6bd 91cc ebbe 2fe7 b8bd 0586 dd3c
00000260: de28 2cbd 7991 49be c3ba 8dbd 1432 5d3f
00000270: 2e78 aa3f a60d 09be bfb4 a93f a61d 74bd
00000280: 2c8c b7be fef3 053f b261 53bd 1eda d63e
00000290: 394f a4bd f1e7 7e3f 770b 853f f33b b5bb
000002a0: 6bbc 823e 3fb3 b5bd 553d 103f 1307 8a3e
000002b0: 517e 01be c37f bcba efbf 45be dd90 be3e
000002c0: 3778 903e fb4a a5bd 0140 8bbe 3bba 103f
000002d0: e76b acbd 3b9e 25be 5d94 4d3f a42f 2cbe
000002e0: 9ad8 f4bc 1990 21be f516 3fbe 293a 02bf
000002f0: e5ff 283f c465 51be d47f e4bd 5bc4 1c3e
00000300: a871 e03e 0676 aabe eaa7 99be e8aa 2cbe
00000310: b611 06bb 1fed 4dbe a226 5dbc a79b d1be
00000320: 2f5e 84bd fdbb 7abe 1f93 e2bd ce34 1fbe
00000330: 693a 97bd e78c 3dbc f9f6 7cbe 8e14 b33d
00000340: 8099 d03e a2f5 debc 168c af3f 77c7 9c3e
00000350: 9391 c9bd 9246 63be c100 babe 066e 16be
00000360: 72c0 483f 826c 653f e371 14bb 39a2 69be
