assignment_part4/saved/saved_model.pkl (torch, 9136 bytes, 3 tensors)

input_to_hidden.weight f4 [220, 6]
000000 ce 94 49 bf 67 1d c8 bf d8 21 0b c1 cc 53 62 c0
       -0.7874268 -1.5633973 -8.695763 -3.5363646
000010 f9 33 03 40 52 4a f0 c0 de 31 58 3d 8a 04 0f c1
       2.0500472 -7.5090723 0.052781932 -8.938608
000020 5d 4b 8b c0 e0 18 86 bf 8a a6 54 bf 6c ff b0 3e
       -4.3529496 -1.0476341 -0.8306662 0.3456987
000030 88 7f bd bf ed 4c 0d c0 41 40 c9 c0 03 15 b3 c0
       -1.4804544 -2.2078202 -6.2890935 -5.596315
000040 d4 f5 af bd 6f 26 88 c0 bb 18 61 bf 44 ea 16 c0
       -0.0859181 -4.2546916 -0.8792836 -2.3580484
000050 0f 33 f9 c0 a9 da 57 c0 86 ce fe 3e 37 65 53 c0
       -7.7874827 -3.372721 0.4976694 -3.3030527
000060 aa f6 76 bf 61 38 55 c0 92 1b c7 c0 53 0b 7c c0
       -0.9647013 -3.331566 -6.2221155 -3.9381912
000070 9d 51 83 be 73 3a 1e c0 b6 f4 80 bf b2 af 3c c0
       -0.25648203 -2.4723175 -1.007468 -2.9482236
000080 12 df cf c0 df 2b 80 c0 ea 70 c9 bd b3 df 2f c0
       -6.4959803 -4.0053554 -0.0983599 -2.7480285
000090 41 e4 81 c1 71 14 0b bf 38 12 53 bf 34 d2 9d 3e
       -16.236452 -0.54328066 -0.82449675 0.30824435
0000a0 ee b3 83 3f b6 f4 87 40 e3 3a 09 bf 8a 6d 85 c0
       1.0289285 4.248622 -0.5360548 -4.1696215
0000b0 d4 08 f8 c0 84 ba f2 bf 03 c0 28 3e 3d b6 d3 bf
       -7.7510777 -1.896317 0.16479497 -1.653999
0000c0 42 94 c7 bf 9d 43 15 40 fe ad f7 3e 63 10 9d 40
       -1.559212 2.3322518 0.48374933 4.9082503
0000d0 b2 d8 70 c1 57 01 12 c1 24 76 f4 bf 31 cf a6 be
       -15.052904 -9.125327 -1.9098554 -0.3257995
0000e0 08 4e 4f c0 65 dc 09 c1 ae 01 f6 bf b5 19 89 c0
       -3.2391376 -8.616307 -1.9219263 -4.284388
0000f0 6a 76 8e bf 3f 33 2c c0 66 7a cf c0 17 5c 85 c0
       -1.1129887 -2.6906278 -6.483691 -4.1674914
000100 4b 3c 1b be 29 51 3d c0 cf 28 71 bf c6 30 2b c0
       -0.15159719 -2.9580786 -0.94202894 -2.674852
000110 10 19 e3 c0 38 dc 77 c0 e7 74 87 3e be 11 48 c0
       -7.0968094 -3.872816 0.26456377 -3.126083
000120 70 71 df bf dd d4 48 3b a5 20 17 c0 80 79 29 c1
       -1.7456493 0.0030644455 -2.3613675 -10.592163
000130 1c 5d ac bf ee e1 90 c0 bf 92 ed bf 78 e8 4f 3d
       -1.3465915 -4.5275793 -1.8560408 0.05075881
000140 6d 6d 59 c0 d8 86 19 c1 3f 55 c2 bf c3 43 9b c0
       -3.3973038 -9.595421 -1.5182265 -4.8520217
000150 58 7d 11 c0 80 8d 7f c0 d3 11 a5 c0 88 ea 93 40
       -2.2732754 -3.9930115 -5.158426 4.6223793
000160 eb aa 1f bf cb bb 75 c1 64 32 29 c0 50 2d da bf
       -0.62370175 -15.358348 -2.6437006 -1.7045078
000170 57 b9 11 c0 03 1c 7c c0 47 2b a1 c0 4b 44 27 c0
       -2.2769372 -3.9392097 -5.036533 -2.6135433
000180 66 4b 3d c0 eb 55 10 c0 14 ab 0a c0 be 70 ba bd
       -2.957727 -2.255244 -2.1666918 -0.09103535
000190 39 f9 d8 c0 ef fc 8c bf ba b2 aa bf f8 a6 08 40
       -6.7804227 -1.1014689 -1.3335793 2.135191
0001a0 76 28 39 3f 49 67 8c 40 1d a3 73 c1 a8 2a 14 c1
       0.72327363 4.387608 -15.227323 -9.260414
0001b0 d3 07 1a c0 c1 b8 87 c0 19 2f 85 3f b5 60 a0 c0
       -2.4067276 -4.241303 1.0404998 -5.011805
0001c0 57 eb 59 c0 d7 d5 ae bf c7 23 3d bf 6d fd f5 bf
       -3.404989 -1.3659009 -0.73882717 -1.9217964
0001d0 b7 3f 02 c1 bc 0e 77 c0 13 1f ea 3f 3d 7f e9 c0
       -8.140555 -3.8602743 1.8290733 -7.296782
0001e0 9d 37 7e bf ef d1 2b c0 14 eb dd c0 e3 50 70 c0
       -0.9930361 -2.6846883 -6.934946 -3.754937
0001f0 8c 73 64 3d 73 29 3b c0 a2 db 8f bf 5f 37 23 c0
       0.055774257 -2.9244049 -1.1238902 -2.5502546
000200 d8 a4 d6 c0 49 31 88 c0 ba 84 03 bb d3 2f 50 c0
       -6.7076225 -4.2560163 -0.0020068125 -3.252919
000210 ad 11 4a bf 05 24 1f c0 c5 2a 01 c1 e8 6b 31 c0
       -0.7893322 -2.4865735 -8.072942 -2.772211
000220 a1 b2 f5 3e 21 8d 2f c0 99 aa 82 bf a0 e4 25 c0
       0.47987846 -2.7429888 -1.0208312 -2.5920792
000230 c6 c8 dd c0 c0 70 82 c0 7d d9 32 3e 5b e4 4e c0
       -6.9307585 -4.0762634 0.17465778 -3.2326877
000240 73 03 14 c0 36 29 62 bf 63 d9 2d c0 5e 35 a0 c0
       -2.3127105 -0.8834413 -2.7163932 -5.0065145
000250 8a a4 64 c0 ea 92 40 c0 cb 7b 90 bf ca 40 31 c0
       -3.5725427 -3.008967 -1.1287779 -2.7695794
000260 6a a0 c9 c0 62 45 91 c0 c9 7e ef bd 3b 86 45 c0
       -6.300832 -4.5397196 -0.11694104 -3.0863178
000270 0e fb ac bf e9 00 07 c0 01 9f e1 c0 21 6b ab c0
       -1.3514116 -2.1094306 -7.0506597 -5.3568273
000280 f9 32 3a 3f 86 5a c0 c0 0f 46 97 bf 7c 77 24 c0
       0.7273403 -6.01105 -1.1818255 -2.5697927
000290 43 81 ce c0 ce 50 95 c0 99 93 0f bd 00 b3 58 c0
       -6.453279 -4.666114 -0.03505287 -3.3859253
0002a0 7e 18 53 bf 38 27 44 c0 67 da e2 c0 0a 5b 55 c0
       -0.8245925 -3.0648937 -7.0891604 -3.3336816
0002b0 f0 aa 1a 3e b7 01 20 c0 0d ec 61 bf 07 76 41 c0
       0.1510427 -2.5001047 -0.8825081 -3.0228288
0002c0 9c f6 dd c0 67 bf 55 c0 85 15 af bb 56 fa 1e c0
       -6.9363537 -3.3398073 -0.0053431415 -2.4840293
0002d0 a8 14 bf bf 2a 26 20 40 97 f4 4d c1 05 29 16 40
       -1.4928179 2.5023293 -12.872214 2.3462536
0002e0 8b a7 10 3f a8 31 35 c0 92 9d 68 bf 1c 67 03 c0
       0.5650565 -2.8311558 -0.90865433 -2.0531683
0002f0 cd 06 03 c1 ae 03 80 c0 9d 01 b4 3f 0b 7b c8 c0
       -8.18916 -4.000449 1.4062992 -6.26502
000300 65 fb 3d 3d 25 10 20 40 6a 6e 63 c1 5a a1 38 40
       0.046382327 2.5009854 -14.214457 2.884848
000310 3e bc a6 be 3c 48 91 c0 92 85 88 3f bf 31 bd 3f
       -0.32565492 -4.5400677 1.0665762 1.4780806
000320 40 91 85 40 2a e1 47 c1 24 ca e4 bf 34 64 ac c0
       4.1739807 -12.492472 -1.7874188 -5.387232
000330 2d 44 8e bf f3 20 1f c0 05 fb db c0 78 34 88 c0
       -1.1114556 -2.486386 -6.874392 -4.256405
000340 32 01 e3 3d 25 0c 5c c0 1e 49 0e bf 3e 50 91 c0
       0.11084212 -3.4382412 -0.5558032 -4.541045
000350 0e e0 d7 c0 7f ea 13 c0 45 39 93 be 55 a8 cc bf
       -6.7461004 -2.3111875 -0.2875463 -1.5988871
000360 99 a1 91 bf 8a 7e 28 c0 c8 e3 cf c0 d6 6f 87 c0
       -1.1377441 -2.6327233 -6.4965553 -4.232402
000370 7d 1e 16 be 82 53 42 c0 cb 66 61 bf 4d 8c 69 40
       -0.14660068 -3.036347 -0.88047475 3.6491883
000380 42 91 e4 3f 81 08 33 40 09 18 50 c1 9a ea 61 c1
       1.7856829 2.797394 -13.005868 -14.119776
000390 a6 c0 d8 bf 6e 3d 84 c0 0d 56 91 c0 94 a7 8e 40
       -1.6933792 -4.1324987 -4.5417542 4.4579563
0003a0 fc 5b 02 c0 65 b9 63 c1 f3 d5 59 bf 82 bc 03 c0
       -2.0368643 -14.232762 -0.85092086 -2.0583806
0003b0 1b f4 06 c1 99 41 51 c0 80 cd 5b 3f bd fa 82 c0
       -8.434596 -3.2696288 0.85860443 -4.0931077
0003c0 58 68 86 bf 6d 54 30 c0 8b 9d d3 c0 b4 b4 85 c0
       -1.0500593 -2.755153 -6.6129813 -4.1783085
0003d0 ca 6b 8c bb d4 f3 41 c0 1d e4 ac bf 4e 6e 78 c0
       -0.0042853104 -3.030507 -1.3507115 -3.8817325
0003e0 c4 a4 81 c0 55 01 87 40 16 98 01 c0 0b 87 5c c1
       -4.051363 4.2189126 -2.0249076 -13.782969
0003f0 5e fd 1c 3d c7 6b 1a c1 9d d4 93 bf 3f 83 b4 bf
       0.038327567 -9.651313 -1.154926 -1.4102553

input_to_hidden.bias f4 [220]
000000 38 7b 37 40 fb d5 d8 3e 65 4a ab bf 96 68 f1 3f
       2.8668957 0.42350754 -1.3382078 1.8860042
000010 3c 9f 48 3d df 65 1a 3f f9 c1 b0 3f 3f 66 e0 3e
       0.048979983 0.6031169 1.3809196 0.43828008
000020 22 09 a0 bf 09 e2 c7 bd 3e f9 94 be 24 7b cb 3f
       -1.2502787 -0.0975991 -0.29096407 1.5896955
000030 e0 f1 1d bf fa c1 4a 3f 1f 04 34 bf c6 b3 48 c0
       -0.61697197 0.79202235 -0.7031879 -3.1359725
000040 ca 9f 1f bd 04 61 a8 bf 86 c5 d2 c0 42 c2 f2 3f
       -0.038970746 -1.3154607 -6.5866117 1.8965533
000050 ce 7f 97 bf 33 aa b8 bf 26 6b f2 3f e3 f0 99 3f
       -1.1835878 -1.4426941 1.8938949 1.2026638
000060 a1 37 95 c0 0f 47 ad 3e 66 e9 a0 3f 7c 4e 04 3f
       -4.6630406 0.33843276 1.2571228 0.5168226
000070 b6 32 c9 3f 8a df ef 3c 34 f2 36 40 7e 3e 24 40
       1.5718601 0.029281396 2.858533 2.5663142
000080 77 ee 6c 3f eb e9 03 40 92 50 ab bf 1a 08 64 be
       0.9255137 2.0611522 -1.3383963 -0.22268716
000090 11 dd 42 be d4 bb 4d be a7 5c 8b be bb a7 20 40
       -0.19029643 -0.20091182 -0.27219126 2.5102375
0000a0 2a 14 e5 bd cd 94 a1 bf 2e a0 f5 3f 3e 57 05 40
       -0.111854866 -1.2623535 1.9189508 2.0834498
0000b0 47 3b 8b 3e ee 68 5f 3f 56 56 94 3f cc 8e 01 40
       0.27193663 0.87269485 1.1588848 2.0243406
0000c0 3f a5 25 bf ba c7 d4 3f e9 b2 6c bf 92 3e df 3f
       -0.6470527 1.6623452 -0.92460495 1.744097
0000d0 0e 5f 76 be b7 b0 54 40 e9 63 04 3e 16 21 3a 40
       -0.24059698 3.3232858 0.12928738 2.9082694
0000e0 34 a7 d7 bf c1 00 07 40 9a 7d 84 3f 78 7c 38 c0
       -1.6847901 2.109421 1.035083 -2.882597
0000f0 11 c7 63 bf 2e 09 4b 3f 73 0b 7a c0 0c db 4b c0
       -0.88975626 0.7931088 -3.9069488 -3.1852446
000100 de 19 ac 3f 18 5c 05 40 28 30 19 c1 fb 40 1f 3f
       1.3445394 2.083746 -9.574257 0.6220853
000110 5f a8 23 c0 a0 6e 11 bf 34 a8 83 c0 37 af 98 3f
       -2.5571516 -0.56809425 -4.1142826 1.1928471
000120 01 79 ba 3f 59 96 2a c0 04 4a 2f c0 20 f1 64 40
       1.4568177 -2.6654265 -2.7388926 3.577217
000130 21 b4 2b c0 c2 88 38 3f c4 50 a9 bc e1 0a a3 3e
       -2.6828692 0.72083676 -0.020668395 0.31844237
000140 33 31 8e c0 c9 4c 00 bf ba c1 0a c0 10 43 53 3e
       -4.443506 -0.50117165 -2.1680741 0.20631051
000150 9f b4 a6 be f0 d2 98 3f fe 33 68 c0 68 5a e2 3c
       -0.32559678 1.1939373 -3.6281734 0.027631
000160 f2 e6 a0 bf d9 f8 a0 c0 73 2f 1a c0 9e 34 75 3f
       -1.2570479 -5.030377 -2.409146 0.9578341
000170 b1 81 f8 3f 96 46 82 3e 6a 33 a9 bf b9 a6 48 3f
       1.9414579 0.25444478 -1.3218815 0.783794
000180 86 1f 57 c0 ad e9 00 40 df 81 ea bf cb 7e 84 bf
       -3.361299 2.0142624 -1.8320884 -1.0351194
000190 4f 4a 55 3f b0 88 ed 3e da 89 1b 3f 75 23 d9 c0
       0.8331651 0.46393347 0.6075722 -6.7855783
0001a0 e7 e5 49 40 22 f5 84 bf d4 06 c3 be db e6 b6 bf
       3.1546571 -1.0387309 -0.38091147 -1.4289201
0001b0 87 64 77 c0 f1 51 bc 3f bd ac ef be 8d e9 0f c0
       -3.8655107 1.4712507 -0.46811476 -2.2486298
0001c0 4a 80 83 be b0 36 ec 3f 92 10 ee be 46 84 1f be
       -0.25683814 1.8454189 -0.46497017 -0.15577802
0001d0 94 47 25 bf 8a 8b b3 be 8c 2a 33 bf 80 ce 11 3f
       -0.64562345 -0.35067397 -0.69986796 0.5695572
0001e0 7a 38 ac be a2 f6 c8 3f a6 0f 30 bf 79 d7 1e bf
       -0.33636838 1.5700266 -0.6877388 -0.62047535
0001f0 0d 88 8d c0 d0 85 94 3e 85 a2 51 3f 76 1c 59 c0
       -4.4228578 0.2900834 0.8188861 -3.392362
000200 b2 5a 5f 3d 03 e2 9b bf ee 3f 17 40 75 9e 7c c0
       0.054529853 -1.2178348 2.363277 -3.9471714
000210 e5 fb bd be b4 19 ec 3f db b2 da bf 4b af 88 3f
       -0.37106243 1.8445344 -1.7085832 1.0678495
000220 18 29 e5 be a7 01 60 3f 0f ce 0c 40 13 3f ce 3e
       -0.44757915 0.8750252 2.2000768 0.40282497
000230 86 46 0c 3f 24 e8 5f 3d aa 61 8a 40 5a 97 aa 3f
       0.5479511 0.054664746 4.324422 1.3327439
000240 ca fa 27 c0 e4 6c 83 c0 0a 32 04 40 bb 9f d6 3f
       -2.624682 -4.1070423 2.0655541 1.6767496
000250 d8 5c b5 ba 56 ab 22 40 bf dc 6f c0 b5 fa a0 c0
       -0.0013836874 2.5417075 -3.7478483 -5.030604
000260 eb c2 15 40 25 2a 0c 40 80 82 90 3e 2f 58 0e 40
       2.3400218 2.1900723 0.28224564 2.2241323
000270 02 20 a4 be 31 9d 3b 40 c8 e2 20 40 59 b8 3d c0
       -0.3205567 2.9314692 2.5138416 -2.9643767
000280 4d ed 73 c0 f5 42 d1 3f d1 ce 95 3e 55 69 1e 3e
       -3.8113587 1.6348559 0.2925935 0.15469868
000290 64 3a 67 3f 90 2b 8d 3f dd 53 31 c0 c4 d2 a9 bf
       0.9032347 1.1028919 -2.7707436 -1.3267446
0002a0 d1 08 78 c0 8f d7 b0 3f b2 c8 81 c0 43 29 6e c0
       -3.875538 1.3815783 -4.055749 -3.7212684
0002b0 27 a0 60 40 a8 a8 c3 c0 c6 53 72 bf be 15 a4 c0
       3.509775 -6.114338 -0.9465908 -5.127654
0002c0 21 c5 9c c0 c1 62 bf bf bc 63 37 40 fd 09 e2 3f
       -4.8990636 -1.4952012 2.8654623 1.7659298
0002d0 3a a6 9f bb 5a 49 46 be 2b 56 d7 bd b9 f8 37 40
       -0.0048721107 -0.19363919 -0.10514482 2.8745558
0002e0 56 ba c7 bf b5 52 84 bf b4 9d 21 c0 96 59 d6 3f
       -1.560374 -1.033774 -2.5252504 1.674609
0002f0 5b b6 ad c0 d0 54 14 40 21 76 05 40 2e 07 74 3f
       -5.42851 2.3176765 2.085335 0.95323455
000300 f1 3d e3 be 03 79 1f c0 9e 1d 95 3f c0 b1 69 bf
       -0.44383195 -2.491761 1.1649663 -0.9128685
000310 f0 f8 68 3f 90 26 83 c0 47 31 c5 3f d4 8c 43 c0
       0.9100485 -4.0984573 1.5405663 -3.0554705
000320 bf 66 85 c0 ed 75 40 bf f7 80 18 3f 26 66 d4 bf
       -4.1687922 -0.7517994 0.59571785 -1.6593673
000330 b1 a3 cc c0 db 95 c5 3f 88 6c 3b 40 6f c1 99 3f
       -6.394982 1.5436357 2.9284992 1.2012156
000340 60 f7 b0 c0 96 35 ed 3e 0b da 6a bf 0a 69 54 c0
       -5.530197 0.46329945 -0.9173896 -3.318911
000350 1b 47 37 40 b3 47 98 bf 6c d2 3b c0 53 5a ab 3f
       2.863715 -1.1896881 -2.9347181 1.338694
000360 88 93 2b 40 69 48 e8 3f de db 36 40 95 f6 eb bf
       2.6808796 1.8147098 2.8571696 -1.8434626

hidden_to_output.weight f4 [1, 220]
000000 4e f2 d3 40 8d 9d 82 40 00 34 65 40 e8 17 a5 40
       6.623328 4.0817323 3.5812988 5.1591682
000010 76 5c 6c 40 21 4c 82 40 8a 40 7b 40 5d e0 80 40
       3.6931434 4.071793 3.9258142 4.027388
000020 5d 4c a5 40 2a 8b 79 40 03 e3 7d 40 56 0a 94 40
       5.1655717 3.899119 3.9669807 4.6262617
000030 c3 d4 81 40 04 fd 93 40 2f ee cd c0 11 89 53 40
       4.057222 4.6246357 -6.435325 3.3052409
000040 36 29 c3 40 b4 65 af 40 ca c2 cb 3f f7 b8 c2 40
       6.0987806 5.481165 1.591882 6.0850787
000050 60 23 82 40 41 f5 79 40 04 65 a2 40 7e 34 92 40
       4.066818 3.905594 5.074831 4.5689077
000060 c8 18 1e 40 ee d6 82 40 1a 00 95 40 f4 c1 85 40
       2.4702625 4.0887365 4.6562624 4.179926
000070 4f 58 8d 40 ce 9c 82 40 d5 98 aa 40 cc 90 be 40
       4.41703 4.081641 5.3311563 5.9551754
000080 b7 e4 f2 40 73 06 3b 40 7b b2 7f 40 5b 17 53 40
       7.5904193 2.9222686 3.9952686 3.2983005
000090 06 6e 7c 40 25 c7 f6 40 33 ed c6 c0 e5 37 b9 40
       3.9442153 7.7118096 -6.216455 5.788073
0000a0 13 cd 83 40 db 6a 8b c0 a8 ef b1 40 42 c1 98 40
       4.1187835 -4.356794 5.560505 4.773591
0000b0 d4 c7 35 40 fc c0 73 40 2c 73 91 40 c7 f9 9a 40
       2.8403215 3.8086538 4.545309 4.8429904
0000c0 a2 cf c3 c0 57 ad ad 40 31 c7 b4 c0 8d 3d 99 40
       -6.119096 5.4274096 -5.6493154 4.7887635
0000d0 9c 67 52 40 c3 9f fe 40 78 06 75 40 f7 a9 ba 40
       3.2875738 7.957002 3.8285198 5.8332477
0000e0 65 a6 74 40 03 53 9b c0 c0 1c 8f 40 d6 56 59 40
       3.822656 -4.8538833 4.4722595 3.395925
0000f0 24 f5 59 40 89 2c 90 40 ce 9e 43 40 49 2b 56 40
       3.4055872 4.5054364 3.0565677 3.346392
000100 5a 12 96 40 49 bb 9d 40 74 6f 38 bc da 3d 87 40
       4.68974 4.929112 -0.011257041 4.2263002
000110 7d 6a 5e 40 f6 59 b3 40 c9 c3 4f 40 a8 f6 8b 40
       3.4752495 5.6047316 3.2463248 4.3738594
000120 f8 93 a7 40 dc 5b 6f 40 9c 14 88 40 9a 16 e4 40
       5.2368126 3.7399817 4.252516 7.127759
000130 5e 6e 7d 40 72 7e 78 40 f0 59 75 40 b1 de 88 40
       3.9598613 3.8827176 3.8336143 4.277184
000140 f8 9f 24 40 b3 81 9a c0 ba fc 58 40 0d 5d 4e 40
       2.5722637 -4.8283324 3.3904252 3.2244294
000150 84 79 73 40 20 21 8d 40 c9 76 4e c0 19 5a 84 40
       3.8042917 4.4102936 -3.226 4.1359982
000160 49 bb 71 40 46 c4 12 40 7b 7c 89 40 08 52 0c 40
       3.777056 2.2932296 4.2964454 2.1925068
000170 51 99 0a c1 3e 5a 6d 40 61 9e 58 40 cf d5 9b 40
       -8.662431 3.708633 3.3846667 4.8698497
000180 c6 d0 68 40 d5 96 a6 40 b4 a5 78 40 a1 50 9c c0
       3.6377425 5.205912 3.8851137 -4.8848424
000190 df c7 72 40 94 fb 6a 40 de 46 22 40 24 cd 81 bf
       3.7934492 3.671605 2.5355754 -1.0140729
0001a0 91 72 26 c1 56 c9 a8 40 2e 6e e6 c0 29 59 76 40
       -10.40297 5.274577 -7.2009497 3.849192
0001b0 8f a1 22 40 af 97 92 40 c9 1b 5c 40 bd 7e 40 40
       2.5411108 4.581016 3.4391959 3.0077355
0001c0 68 7f 90 40 8e d5 8a 40 10 6a 75 40 d2 b8 4e 40
       4.5155525 4.3385687 3.8345985 3.2300305
0001d0 09 23 1d 40 90 8b ba 40 1a c2 d4 c0 8d 19 d5 40
       2.4552634 5.8295364 -6.648694 6.659369
0001e0 93 a7 44 40 77 f7 8f c0 6b 35 46 40 67 16 be c0
       3.072728 -4.498958 3.0970104 -5.9402347
0001f0 79 5a 2c 40 c0 d3 75 40 bf 96 80 40 ff dd 5e 40
       2.693022 3.8410492 4.0184016 3.4822996
000200 15 a9 6e 40 89 93 bb c0 d5 53 a4 40 64 8c 41 40
       3.72907 -5.8617597 5.1352334 3.0241938
000210 89 f5 71 40 65 a2 a2 40 80 da 96 40 2d 23 99 40
       3.7806113 5.0823236 4.7141724 4.785544
000220 0f eb 62 40 b8 04 84 40 6f 86 ae 40 fa ad 80 40
       3.5455968 4.125576 5.4539104 4.0212374
000230 d4 63 87 40 ee d7 7e 40 e7 c3 18 40 c3 d8 87 40
       4.230936 3.9819293 2.386957 4.24521
000240 98 ca 65 40 8c 59 30 40 5d 0e 9f 40 87 8c 95 40
       3.5904903 2.7554655 4.9705033 4.673404
000250 32 11 7d 40 b7 c6 a8 40 2a 07 38 40 50 81 16 40
       3.9541745 5.274257 2.8754373 2.3516426
000260 91 8c bb 40 ff 5d b3 40 c8 dd 86 40 f1 79 e3 40
       5.860909 5.605224 4.214573 7.1086354
000270 bc a2 71 40 39 c0 c2 40 e9 dd 05 40 39 51 72 40
       3.7755575 6.0859647 2.0916693 3.7862074
000280 4d 8c 48 40 46 8e 92 40 cd 09 90 40 d2 c1 5f 40
       3.1335633 4.5798674 4.5011964 3.4962049
000290 15 b2 88 40 33 6e 84 40 32 c7 84 40 0d 84 c3 40
       4.2717385 4.138452 4.149316 6.1098695
0002a0 24 6b 1e c0 9f 31 91 40 e4 a2 3b 40 c3 6b 34 40
       -2.4752893 4.5373073 2.931817 2.8190773
0002b0 29 63 e4 40 b0 8b f7 bf ab ee 77 40 c2 19 12 40
       7.1371045 -1.9339504 3.8739421 2.2828221
0002c0 f4 ca 15 40 76 a6 99 c0 2b f8 b6 40 14 4c a5 40
       2.3405123 -4.80157 5.717794 5.165537
0002d0 11 7b 82 40 57 0e 4b 40 08 1b 6e 40 b8 4c c2 40
       4.0775228 3.1727502 3.7203999 6.071865
0002e0 de 52 5d 40 24 2d df 40 64 28 37 c0 fb 92 a1 40
       3.4581828 6.9742603 -2.8618402 5.049192
0002f0 08 60 19 c0 f3 72 af 40 a0 b8 9a 40 79 f9 7f 40
       -2.3964863 5.482782 4.835037 3.9996016
000300 00 f9 c7 c0 2e c7 5f 40 cb 23 b7 40 ac e4 be c0
       -6.2491455 3.496532 5.7231193 -5.965414
000310 b2 b0 8d 40 82 c1 32 40 60 64 80 40 ae 15 44 40
       4.4278193 2.7930608 4.012253 3.0638232
000320 68 ec 3f 40 44 14 b0 40 1c c4 74 40 8b c4 7c 40
       2.998804 5.502474 3.8244696 3.949496
000330 3f b1 b1 3f 6d 52 97 40 2a 47 b8 40 cc 7c 92 40
       1.3882216 4.7288117 5.758687 4.577734
000340 2a 49 b8 c0 39 59 8e 40 51 5e b4 c0 b2 40 50 40
       -5.758931 4.4483914 -5.636513 3.2539487
000350 1c 17 c6 40 6f b7 62 40 23 85 5e 40 06 e8 a0 40
       6.190321 3.542446 3.476876 5.028323
000360 ef 45 bb 40 df 82 9e 40 81 4f b4 40 1e 88 6b 40
       5.852287 4.9534755 5.634705 3.680183
