assignment_part4/saved/saved_model_lr.02.pkl (torch, 9136 bytes, 3 tensors)

input_to_hidden.weight f4 [220, 6]
00000000: 2da0 1ac0 7214 ad3f db23 9ec0 66b7 7bc1
00000010: ce16 0ec1 a3e8 d4c0 9ea8 4bc0 af3c 6ebf
00000020: 442f 45c0 45ff 6cc1 1bdb 04c1 716c d5c0
00000030: ad96 53c0 5bff 2dbf 00cb 45c0 becb 7cc1
00000040: 9355 fec0 c425 e0c0 d86f 1ac0 8018 15c0
00000050: 6d3e 07c0 13bb 49c1 d458 0cc1 3125 aec0
00000060: 077f ebbf 974d 9fc0 72ff 43c1 1576 efc0
00000070: 149b 483d de16 49c0 9b85 e7bf 16ef 3dc0
00000080: ccf7 65c1 fac0 d3c0 5a79 633f 63e8 1cc0
00000090: 5fdf 19c0 a25e 99c0 f03b dec0 3b3a 32c1
000000a0: bcf3 6dc0 6396 64c0 07ab 8bbe 2033 24c1
000000b0: 5011 70c1 bc2a 1bc0 9ebc e5be 6fd5 36bf
000000c0: 0f0f 1dbf 75ab e2c0 e536 2ac1 9dc3 61c0
000000d0: 02e4 10be 43b6 71bf 831a fbbe eb90 18c1
000000e0: 518d 35c1 9100 c4c0 694a 263f ddb2 72bf
000000f0: 0e5b 963f ea4c 94c1 fb47 d0c0 b7d8 533f
00000100: 6699 31c0 e1ce af3d fb02 44c0 a99c 26c0
00000110: 6226 1bc1 80c1 38c1 f589 a440 086b 86c1
00000120: 023f 75bf e5ab e6c0 5909 23c1 be25 f9c0
00000130: d9fa 8e3e fe3a 0dc0 72c1 83c0 9989 10bf
00000140: 0c34 16c0 fd55 a0c1 dc09 8fc0 2315 eac0
00000150: d416 41c0 fb6d b4bf 231c 8a41 fc0e 1441
00000160: ef62 fe40 02c1 0540 3e9a f23e b75f 4f40
00000170: 7a72 b9c1 d153 8840 39b0 1bbf 8a4f d4c0
00000180: 61de 90bf 2007 d3c0 f1b0 2ac1 c99a efc0
00000190: c0ca 8c3e e0be 12c0 0cc6 0a41 e783 ba40
000001a0: 13ff 0dc1 fb29 0ec0 6f5a 30c1 1b87 9841
000001b0: c91f 4440 3be7 bcc0 cda8 55c0 d91f 4b40
000001c0: f7bd a3c0 629f 0cc1 bb16 abbf a04e a8c0
000001d0: d85d 26c1 32d1 cec0 9cff cabd 86a9 0ac0
000001e0: bef5 4dc0 1a90 c63e df46 83c0 877b 82c1
000001f0: c6ce 02c1 8d81 e2c0 9569 4bc0 e705 90bf
00000200: f73e 3cc0 60f6 68c1 6aa3 05c1 a575 d3c0
00000210: 621d 45c0 38db 4f3f 916a 8ac0 efa6 80c1
00000220: 96f1 01c1 e2c8 dec0 be61 fb3e d931 65c1
00000230: ed21 56c1 e8c8 a23e db9a 50bf 25fc 08bf
00000240: 3404 1dc0 b201 26c0 a5c1 b7c0 d8ff 34c1
00000250: 8832 98c0 296b 76c0 e2ee af3f e874 98c1
00000260: dfe0 d1c0 26ba 2e3f 2b47 24c0 86c2 543b
00000270: 1801 00c0 abb3 0fc1 c803 3840 8683 1240
00000280: 4ea0 2f40 445e dbc1 a058 5fc0 e021 85bf
00000290: 783f 33c0 9e12 82c1 783c 01c1 d403 e5c0
000002a0: 5f8d d03c faa6 7340 9652 65c0 3754 d2c1
000002b0: 1e3d 34c0 4229 d2c0 14c5 4cc0 3be8 eebf
000002c0: 6f8d 12c0 c790 68c1 698b 04c1 4707 d5c0
000002d0: ac2c c8bf 712d 2640 708c 1d40 0362 d040
000002e0: 42e8 c0c1 2422 4bc1 58ee 0fbf 2c07 0dc1
000002f0: 0fa5 80c1 f503 b0bf c853 30bf fc1e 75bf
00000300: 5ef8 09c0 c2c9 45bf 67bc 48c0 f75c 44c1
00000310: 1409 01c1 70bd 9fc0 db13 af3f 8825 613f
00000320: e608 703f a575 dac1 a9e7 2740 1533 8abf
00000330: 7c34 8ac0 22f4 46bf a5a8 eebf 63e0 acc1
00000340: 340e 29c0 c3fc eac0 1afa d6c1 40f0 c440
00000350: 169b 6d40 7a53 8c3f 9acb cfc0 dd97 3b41
00000360: 47b8 e6bf 0f0e b3c0 7838 f0c0 1365 1dc1
00000370: 8cae e0bf d140 46c0 6fb7 ffbf 2543 90bf
00000380: 4022 34c0 72cc 0bc1 ad0e e0c0 7af0 7ec0
00000390: 95e9 11c0 305e 04bf 202a 82c0 66e3 44c1
000003a0: 0b50 f9c0 5bd0 9bc0 9cfc aebf 5c6f bdc0
000003b0: ae67 29c1 2669 fbc0 60c1 a23d 8c50 2dc0
000003c0: c6b5 65bf 62d1 c8c0 fef2 1ec1 0b4d acc0
000003d0: ebd1 44bd 6e75 b8bf a9d9 b7bf 6217 65c0
000003e0: 3abc c4c0 515b b9c0 a60a 1ac0 5d07 f6bf
000003f0: dce2 73c0 71a9 3ebe 4b71 38c0 86d8 93c1
-2.4160264 1.3521864 -4.941877 -15.732275 -8.880568 -6.653398 -3.1821666 -0.93061346
-3.0810099 -14.812322 -8.303493 -6.6694875 -3.3060715 -0.67967767 -3.0905151 -15.799742
-7.947946 -7.00461 -2.4130764 -2.3296204 -2.1131852 -12.608172 -8.771687 -5.44204
-1.8398141 -4.9782214 -12.249865 -7.4831643 0.04897602 -3.1420207 -1.8087648 -2.9677176
-14.372997 -6.6173067 0.8885704 -2.4516838 -2.4042585 -4.792802 -6.9448166 -11.139216
-3.7180014 -3.5716789 -0.2727892 -10.262482 -15.004227 -2.4244833 -0.44870466 -0.71419424
-0.613511 -7.08343 -10.638402 -3.5275643 -0.14149478 -0.94418734 -0.49043664 -9.53538
-11.347001 -6.125069 0.6495729 -0.94804174 1.1746538 -18.537556 -6.5087867 0.82752556
-2.7749877 0.08584381 -3.062682 -2.6033118 -9.696871 -11.547241 5.1418405 -16.802261
-0.9579927 -7.208483 -10.189782 -7.785857 0.27925757 -2.2067256 -4.117364 -0.5645996
-2.3469267 -20.041986 -4.4699535 -7.31508 -3.0170183 -1.4096063 17.263739 9.253658
7.949577 2.0899053 0.47383302 3.240217 -23.180897 4.2602315 -0.6081577 -6.6347094
-1.1317865 -6.5946198 -10.668199 -7.4876447 0.27498436 -2.2929 8.673351 5.8286014
-8.874774 -2.2213123 -11.0220785 19.06597 3.06444 -5.9032264 -3.3384278 3.1738188
-5.116939 -8.788912 -1.3366312 -5.259598 -10.397911 -6.4630365 -0.09912035 -2.166597
-3.218124 0.38781816 -4.1024013 -16.310316 -8.175482 -7.0783143 -3.1783192 -1.1251801
-2.941343 -14.56015 -8.352396 -6.608111 -3.0799184 0.81193876 -4.3255086 -16.08151
-8.121481 -6.962022 0.4909801 -14.32467 -13.383283 0.31793904 -0.8148629 -0.5350974
-2.4533815 -2.5938535 -5.7423882 -11.312462 -4.7561684 -3.8502905 1.3744776 -19.057083
-6.5587 0.6825279 -2.5668437 0.0032464578 -2.0000668 -8.981364 2.8752308 2.2892776
2.7441592 -27.421028 -3.4897842 -1.0400963 -2.8007488 -16.25909 -8.077263 -7.1567173
0.025458036 3.8070664 -3.5831656 -26.29112 -2.8162303 -6.5675364 -3.1995287 -1.8664621
-2.2898824 -14.535346 -8.284036 -6.6571383 -1.5638633 2.5965235 2.4616966 6.5119643
-24.113407 -12.695835 -0.5622306 -8.814251 -16.080595 -1.3751208 -0.6887784 -0.95750403
-2.1557841 -0.77260983 -3.1364992 -12.2726965 -8.064716 -4.9918747 1.3677934 0.87947893
0.9376358 -27.307444 2.6235144 -1.0796839 -4.318907 -0.7771627 -1.8645216 -21.609564
-2.641492 -7.3433547 -26.87212 6.1543274 3.7125907 1.0962975 -6.4936037 11.724576
-1.8024987 -5.595466 -7.506893 -9.837176 -1.7553267 -3.097706 -1.9977854 -1.1270491
-2.8145905 -8.737413 -7.0017915 -3.9834275 -2.2798817 -0.5170622 -4.067642 -12.305517
-7.791021 -4.869184 -1.367084 -5.9198437 -10.587812 -7.8565855 0.079470396 -2.7080412
-0.8973049 -6.2755594 -9.934324 -5.3844047 -0.048051756 -1.4410837 -1.43633 -3.5795522
-6.147977 -5.792397 -2.4069 -1.9220997 -3.8107214 -0.18619324 -2.8819149 -18.480724

input_to_hidden.bias f4 [220]
00000000: 2164 8840 25c1 5f3f ceb3 1b3f 8dee de3f
00000010: f303 8b40 e60a fa40 2e41 7e3f 9977 923e
00000020: 6ee1 82c0 7e51 343f 8ab4 14c0 707d 8c40
00000030: d2ce abbf 1ddb 8a3f 07f7 5dc1 3f69 2540
00000040: fd1f a1bf 9e3c c8bf e641 6ec0 101c 2ac0
00000050: 1102 0b3f 1597 503f eb39 dbbe ba91 4abf
00000060: 71a2 ed3f a129 043e 9eb8 0241 bf4d f43f
00000070: 6f3f 5b3f 05aa 373f 44aa 14c0 616d a83e
00000080: a994 3540 ea5d e6bd 3d19 0140 602a a6c0
00000090: 475e abbf b6c9 83c0 ec4b 3340 576a 95bf
000000a0: bb56 68c0 9d6a 97c0 e9db 633e 69f7 2040
000000b0: afe9 60bf 52a0 983f 820d 3b40 5d59 bb3e
000000c0: e775 ca3f 3828 dcbf d23c ea40 b683 1ec0
000000d0: c08d 9c3f beb4 cd40 926f 2241 b8c0 b63f
000000e0: fdf0 8140 d69d 82c1 123c 4040 669f 6940
000000f0: f35a 1540 a25f 8e3f cf07 dd40 8fe8 46bf
00000100: e54b cf3f 3554 b7bf b40b ce3e 23ce 3a3d
00000110: 81ed b340 091e b240 304f d03f e4d4 09be
00000120: b6f3 01bf 25fa a1be 292b 3640 c27f 3a3e
00000130: 5185 4bc0 773d 76c0 159f 9fbf e3ce 83bf
00000140: 1fb0 6940 6e2f 4e40 2a65 973e 2bfe f9bf
00000150: 5d54 1f3f 9cf9 f9ba 6025 a03f ec6a 6dbf
00000160: c9c0 62bf d7cc fe3f d7e8 54c0 ed2b a640
00000170: 4d37 48be 8c35 98bf 870b eabf 523d 92bf
00000180: d6ad 9640 f5d2 7340 aecf 28bf b6e8 3940
00000190: 74f1 e83f 873e 0a40 4264 c4c0 9252 f93f
000001a0: d9ef babf c6f7 c63f 7f65 d5bf 5f0f e2bf
000001b0: 298c 6d40 a447 2f40 8e4e 1340 11f2 9bbf
000001c0: 7adc bebe 47c2 913f 5d42 eebf a61a 7d3f
000001d0: fd82 cc3f fa07 a340 788d b140 7606 94c0
000001e0: 8d2b 4f3f 1fcc 0340 f987 8840 49af 5c40
000001f0: ff34 9b40 f68e 68bf 6713 eebf 4b19 a93f
00000200: 5c91 1a3f 40ce a83d 813c 14c0 d278 9abf
00000210: b2f4 2d3f 9598 8540 ed1b ec40 24d0 dcbf
00000220: 5c0e 1ac1 61eb 02c0 dc94 eabe 3f95 9440
00000230: 0585 a340 25ea eebf d121 fa3e 66f6 d33f
00000240: d527 8cc0 27ad a7bf 4515 ccbf 4cf4 c4c0
00000250: 9352 f2bf 8799 1c3f 4ed4 c8be 79ce ee40
00000260: 5a92 f73f fd21 4240 7053 63c0 81c7 4cbf
00000270: a249 cbbf d78b 45c0 e776 0cbf 8358 89c0
00000280: 48ce a03f 1093 ddbf 6473 2940 7f5d 1440
00000290: a472 2140 517e 5cc0 1a11 08bf a127 a23f
000002a0: 4493 46c1 3470 c640 5d49 a140 8043 b8c0
000002b0: 7701 c53f 815b 2c3f bce9 1ec0 f897 6bbf
000002c0: 2488 c2bf e65d ab3f 03be c83f 9f2f d73f
000002d0: 69d9 8fbf 6f3a 313f 9ca5 07bf ff67 4bbf
000002e0: 816c c03d 6489 6a40 fdf9 1ac0 cd1f 0d3f
000002f0: 2973 1ac0 f934 a23f a0bb 9c40 1fa1 1840
00000300: cedc a240 e4d4 6ebf 9ea7 8040 e001 75be
00000310: 40ba 853f b9a5 023f 21e2 c5bf bd67 4840
00000320: 5d20 57c0 4348 9240 4951 8bbe fc11 023e
00000330: e475 3d40 2477 8b40 9878 0fc0 0c14 21bf
00000340: 0aa3 9940 059d a83f 1d83 0a40 00d3 bfc0
00000350: 2e86 af3f ab82 7ec0 7870 df3f 28e5 ad3f
00000360: 1725 4dbc 7624 8f3f 71df 8440 3141 8ec0
4.262223 0.8740409 0.60821235 1.741655 4.344232 7.8138304 0.99318206 0.2860687
-4.0900183 0.7043685 -2.3235192 4.390312 -1.3422492 1.0848118 -13.872809 2.5845487
-1.2587887 -1.5643499 -3.7227721 -2.6579628 0.5430003 0.8148053 -0.42817625 -0.7912861
1.8565198 0.12906505 8.170073 1.9086226 0.85643667 0.71743804 -2.3228922 0.3289595
2.8371985 -0.112483814 2.0171654 -5.1926727 -1.3388146 -4.118373 2.801509 -1.1673077
-3.6302936 -4.7317643 0.22251858 2.5151007 -0.8785657 1.1923926 2.9226995 0.36591616
1.5817231 -1.7199774 7.3199244 -2.476789 1.2230759 6.4283133 10.152239 1.4277563
4.0606675 -16.327068 3.0036664 3.650354 2.333676 1.1122935 6.907203 -0.77698606
1.6195036 -1.4322573 0.40243304 0.045606744 5.622742 5.5661664 1.6274166 -0.13460118
-0.507625 -0.31636158 2.8463843 0.18212798 -3.180012 -3.8475015 -1.2470423 -1.0297512
3.6513746 3.2216449 0.2956937 -1.9530691 0.62238103 -0.0019071582 1.2511406 -0.92741275
-0.88575417 1.9906262 -3.3267114 5.192862 -0.19552346 -1.1891341 -1.8284768 -1.1424963
4.70872 3.8097508 -0.65941894 2.9048285 1.8198686 2.1600664 -6.1372385 1.9478323
-1.4604446 1.5544364 -1.6671599 -1.7660941 3.7116797 2.7387476 2.3016696 -1.2183248
-0.37277585 1.1387414 -1.8614002 0.9886879 1.5977474 5.0947237 5.548519 -4.6257887
0.8092583 2.0593336 4.266598 3.4481986 4.8502192 -0.9084314 -1.8599671 1.3210844
0.6037805 0.08242464 -2.3161929 -1.2068121 0.679515 4.1748757 7.378409 -1.725102
-9.628506 -2.0456164 -0.45816696 4.6432185 5.1099877 -1.8665205 0.48853925 1.655957
-4.3798623 -1.3099717 -1.5943991 -6.1548214 -1.893145 0.61171764 -0.39224476 7.462704
1.9341538 3.0333245 -3.5519676 -0.7999192 -1.5881846 -3.0866601 -0.5486893 -4.2920547
1.2562952 -1.7310505 2.647668 2.3182065 2.522622 -3.4452097 -0.53151095 1.2668344
-12.4109535 6.2011967 5.0402055 -5.7582397 1.5391072 0.67327124 -2.483016 -0.9202876
-1.5197797 1.338803 1.5682987 1.6811408 -1.1238223 0.6922979 -0.52987075 -0.7945556
0.093956955 3.6646357 -2.421508 0.5512665 -2.4132788 1.2672416 4.8979034 2.384834
5.0894537 -0.93293595 4.020461 -0.23926497 1.0447464 0.5103412 -1.5459634 3.1313317
-3.3613503 4.571321 -0.27210453 0.12702173 2.9603205 4.3582935 -2.2417355 -0.62921214
4.801152 1.3172919 2.1642525 -5.994507 1.3712823 -3.9767253 1.7456198 1.3585558
-0.01252105 1.1183002 4.1522756 -4.445458

hidden_to_output.weight f4 [1, 220]
00000000: 211b 1041 1a08 d140 2bde c540 283d e440
00000010: 9cd0 1041 fc8f 4b41 7aa2 b140 935e b040
00000020: 8cd2 6740 adf2 ba40 3916 a840 8b16 1741
00000030: 3376 9440 cbe1 ce40 4a4b 15c0 0be5 4741
00000040: 2c39 9740 7cdc 79bf 6204 91c0 93fc 8540
00000050: f2e1 c640 9c2d d240 f332 b740 4b5c af40
00000060: 3066 cc40 69b9 df40 9a7a b8c0 6f4f d840
00000070: dd98 0741 ed71 cb40 00ae cd40 ec35 c140
00000080: 3113 0241 a487 8940 7b89 ec40 b4c6 a040
00000090: 9aab 9540 1299 7940 dda4 ff40 dfb9 9f40
000000a0: 1656 6e40 8595 3e40 8d2d ba40 43ea 4141
000000b0: 9ac1 9640 d62a d740 829b 1b41 42af b040
000000c0: 3bf5 d040 5642 9140 29db 8441 c3d1 7e40
000000d0: a6a2 df40 4d84 54c0 c5ed 8840 5fc2 df40
000000e0: f52b 0841 9cae cb3d 971e 2b41 0539 0841
000000f0: 6d5e f740 f57b ae40 a026 3141 7462 e3c0
00000100: c0b0 dd40 2298 8d40 e330 af40 4a94 c440
00000110: 50b8 6141 8a2c 2541 9db7 bf40 661c ed40
00000120: edd7 aa40 179d b940 f9ed ec40 0d47 c240
00000130: e848 a1c0 4fad 6c40 d8f0 9b40 23b2 a440
00000140: c49c 1b41 8347 3541 fcdc d140 6531 8f40
00000150: afbe bc40 5ad9 c940 b50e d040 d464 9e40
00000160: 5cae bf40 fee5 da40 f811 7440 c8fe 4e41
00000170: 4414 b240 5708 a140 e58c 8740 15ea a240
00000180: 8076 1441 a6e1 3b41 f7c4 de40 27b1 fa40
00000190: 7b49 e740 5772 e740 6a9d 3a40 b9f8 c640
000001a0: 5073 ae40 87a4 d840 1d4d 9a40 8221 9c40
000001b0: b020 8c40 91f6 a840 23b0 f040 89d0 bc40
000001c0: cabd eb40 1c8e 0941 b317 9f40 5fdd cb40
000001d0: d3b2 e640 2158 1b41 3fd4 1e41 5400 5b40
000001e0: 2e6a 0a41 ecca e640 b283 0b41 d4a7 3341
000001f0: 4f10 f640 7783 c140 95c4 9640 bcd8 d940
00000200: c0ce c540 7f9e a140 b9d8 e2c0 a540 b240
00000210: 444b e240 5c3d 0941 938e 4841 e09e 8e40
00000220: d756 0fc1 0cc6 a840 7940 b640 e501 4c41
00000230: 9e06 1b41 4e87 8940 0008 c740 42ac df40
00000240: e4a3 4d40 70fd 9440 a199 9640 1cf3 2ec0
00000250: d57e 9f40 c6f8 e240 6f6b b440 583a 4341
00000260: 616f e740 f42d dc40 aeaf d9c0 a7f6 9640
00000270: a93a 9740 29e4 7e40 da41 c240 3edd 6640
00000280: c35e ce40 ba72 9240 acb0 0241 cd9b 2141
00000290: 85b8 ee40 3fc4 8840 5134 be40 b06a 6cc1
000002a0: 4ffa 2ec0 4295 2641 154d 1c41 a19a 25c0
000002b0: e6b4 e040 8284 cc40 6b31 8540 b9e7 b540
000002c0: 4910 a440 5715 d840 878f e840 aa14 e240
000002d0: 1bd0 9140 0f8f ce40 5a4a 8f41 bf52 9b40
000002e0: 6b41 b940 8d0d 0441 2b2d a640 635b cc40
000002f0: 8d41 e5c0 bbdc ea40 c3c4 1741 9364 f940
00000300: 4913 3c41 adf8 db40 d20e 0a41 9015 9f40
00000310: ea55 d940 2a26 c640 28d0 a840 9087 0741
00000320: c72a 7740 6988 2b41 3438 9a40 aa63 c240
00000330: 9d65 fa40 12c7 0641 5398 9040 aa3c ae40
00000340: 1e7c 1741 8765 b540 9c36 da40 1649 8bc0
00000350: c91b ce40 f500 adc0 954e e940 0e1d b140
00000360: 1f7d bb40 aaa7 cf40 655c 4241 e494 4140
9.006623 6.532239 6.18337 7.1324654 9.05093 12.722652 5.5510836 5.5115447
3.6222258 5.8421235 5.2527127 9.443004 4.6394286 6.4650626 -2.3327203 12.493419
4.725729 -0.9760206 -4.531785 4.187082 6.215081 6.5680676 5.7249694 5.480016
6.387474 6.991383 -5.764966 6.7596965 8.47482 6.357657 6.42749 6.0378323
8.129685 4.2978077 7.3917823 5.0242558 4.6771975 3.8999677 7.988875 4.9914393
3.7240043 2.977876 5.8180604 12.119693 4.711133 6.723979 9.725466 5.521394
6.5299354 4.5393476 16.607012 3.9815528 6.9886045 -3.320575 4.2790246 6.992477
8.510732 0.099454135 10.694968 8.513921 7.7302766 5.4526315 11.07193 -7.105768
6.927826 4.424821 5.4747176 6.1431017 14.107498 10.323374 5.9911637 7.4097166
5.338858 5.800426 7.4040494 6.071173 -5.0401497 3.698078 4.87315 5.146745
9.725773 11.329959 6.5582256 4.4747796 5.898277 6.307782 6.5017953 4.949808
5.990034 6.840575 3.8135967 12.937202 5.564974 5.032268 4.235949 5.0910745
9.278931 11.74259 6.9615436 7.834125 7.22772 7.2327075 2.9158578 6.2178617
5.451576 6.770084 4.8219132 4.8790903 4.37899 5.2800984 7.521501 5.900456
7.3669176 8.597195 4.971643 6.370773 7.209329 9.709016 9.926818 3.421895
8.650923 7.2122707 8.719652 11.228474 7.689491 6.047298 4.711497 6.807707
6.181488 5.0505977 -7.0889554 5.570391 7.0716877 8.57748 12.534808 4.456894
-8.958701 5.2741756 5.69537 12.750463 9.689116 4.2977667 6.2197266 6.9897776
3.213128 4.655937 4.7062535 -2.7335882 4.9842324 7.092868 5.6381145 12.201744
7.232346 6.8806095 -6.8026953 4.717609 4.7259107 3.9826758 6.0705385 3.6072536
6.4490676 4.5765047 8.168133 10.100537 7.4600244 4.273956 5.9438863 -14.776047
-2.7340276 10.41144 9.768819 -2.5875628 7.0220823 6.3911753 4.1622825 5.6845365
5.126988 6.752605 7.2675204 7.0650225 4.5566535 6.454963 17.911304 4.853851
5.7892356 8.253308 5.1930137 6.3861556 -7.164252 7.3394446 9.485538 7.793527
11.754708 6.874106 8.628618 4.971382 6.7917376 6.1921587 5.2754097 8.470596
3.861986 10.720803 4.8193607 6.074666 7.824904 8.423601 4.5185943 5.4449053
9.467802 5.6686435 6.819166 -4.3526716 6.4408917 -5.406367 7.2908425 5.5347967
5.8590236 6.489217 12.147557 3.0247126
