trainingruns/1hiddenkfold3/saved/saved_model.pkl (torch, 9144 bytes, 3 tensors)

input_to_hidden.weight f4 [220, 6]
00000000: 68fb 65be 9b47 9ec0 fb1c ccc0 9017 6dbf
00000010: b36c b2bf 7447 ebbf a457 a53f 7725 30c1
00000020: b09b bdc0 c882 edbd 2fc9 a7be a8ce aebe
00000030: 9b3c 46bf 22eb 5d40 e046 5ac1 f01a 2040
00000040: 79f2 e33e 08e8 16c0 b44a 13bf 7e91 8ec0
00000050: b400 a9c0 0693 c4bf 69d1 e3bf 63fe e3bf
00000060: 9176 bfbd 8a23 b5c0 da40 b6c0 8efd 66bf
00000070: e6d1 cabf 7dd0 c4bf 9171 e5be 0859 f9bf
00000080: feae 5cc0 8381 29c1 ee87 953f c4ee 09c0
00000090: 9c14 ed3d d0c9 d2c0 c6c6 9ac0 fc22 65bf
000000a0: b5ea e2bf 4bdd 93bf c560 1bc0 d4a8 80c0
000000b0: ea26 56bc 3d7e 91bf ed8b cdc0 ac25 82bf
000000c0: 7bae b13f 02c1 15be 24b3 26c0 16ff 56c1
000000d0: c0c6 3340 88b1 10c0 52b6 a6bd c85f adc0
000000e0: 219a c9c0 80c3 57bf 1fd7 adbf 6887 dbbf
000000f0: 5416 10bf 7914 72c0 d62d d2c0 b015 b0bf
00000100: 3d39 a9bf 2f22 0dc0 ee11 2ebf 44f4 1fc0
00000110: 78a1 f1c0 a15d 17c0 5446 24be 892a 39c0
00000120: 798f 85bd 986b afc0 87a3 cbc0 a7eb 46bf
00000130: 40a1 adbf bacb d9bf bbef 4cbf 43a1 1a40
00000140: 19ac 3140 a259 4840 7935 73c1 336e 48c1
00000150: b594 cdbf 2ded 44c0 594e 19c0 635a bdc0
00000160: b38f dfbf feee 02c0 8963 69bf 76c5 263f
00000170: a0ea 3bbe 72be 05be 4677 92c1 1a78 3541
00000180: 6520 003f 7ea8 f2c0 83e7 c1c0 59e2 dabe
00000190: 7572 9dbf cb9d 96bf 95ec d53e 28bf 04c1
000001a0: e40c b2bf 4d18 d2bf 84e5 23c0 6cd3 3e3e
000001b0: 3104 7740 fa2b 1141 1944 70be aa75 4440
000001c0: e062 903e 1ad5 ebc0 2444 b7be d0f4 8ec0
000001d0: 1210 ccc0 a3e7 91bf 9cd5 afbf 2104 fcbf
000001e0: ffc2 8ebd 7159 c0c0 c93c 9cc0 3e96 83bf
000001f0: 8d8e e8bf 186a a4bf 4b40 e8be 5937 8ac0
00000200: f6f6 c9c0 2a1b 93bf f1f7 bdbf 1f0a ffbf
00000210: e60d 26c0 996c 78c0 7cad 723d 713e 12c0
00000220: f906 bfc0 ef03 aabf 7970 3ac0 6f25 47c0
00000230: acb5 72bf db14 bd3f e784 0dc1 a09c bfbf
00000240: 4419 29c0 0799 6ec0 fb69 a03e de4e adc0
00000250: edd2 98c0 b830 febf 71d1 51bf 3087 a2c0
00000260: 50a4 2ec1 b474 303f 759e 843f 8f0a eabe
00000270: bff2 0ebf 4e46 78c0 4c40 ccc0 7fab c3bf
00000280: a330 a8bf cb14 0cc0 bc92 363d 0f15 bbc0
00000290: 44c0 ccc0 1e3f 2cbf 7639 a7bf 3325 cebf
000002a0: 69ec a23f 5e25 49bf da33 2cc0 5041 52c1
000002b0: 0510 3040 c516 07c0 894f d5be df74 3dc0
000002c0: 052e 05c1 7d46 6cbf b8b6 0bbf 3293 20c0
000002d0: bbf2 57bf 6a0f 93c0 cbc3 28c0 038a 4c40
000002e0: 1748 23bf a80d 79c1 8b11 c4bf c042 69c1
000002f0: a27a 0140 6cbd 7ebe 10cf 5b3e 42b8 55bf
00000300: 2f2d d7be 4b92 8ec0 03d4 bdc0 b082 b7bf
00000310: 9536 b9bf efb9 f6bf 4ffc 22c0 2cf6 80c0
00000320: c255 c43c 44d5 08bf 5514 ddc0 de0e 67bf
00000330: e630 cfbe 7b3c 8fc0 32a0 bec0 48a1 bebf
00000340: c19b b2bf faff f9bf 7158 e6c0 c186 8ebf
00000350: 4a71 5b40 3eda a7bf 6d7e af40 1d09 8cc0
00000360: 8163 9ebe 497e 64c0 2b0c 11c1 7437 7dbe
00000370: b187 dcbe 955b 0cc0 fbf9 49be d423 85c0
00000380: 2945 3ac0 88f7 7440 d906 e3bd 8dfb 77c1
00000390: 33ce 92c0 d672 b73e 230e e840 5a16 5840
000003a0: 6c71 1541 7f3f 76be 08c4 a43e 16c3 ebc0
000003b0: 7b51 86c0 61d1 5fbf b8e0 efbf 8e8f 57bf
000003c0: 0137 e33e 1e51 f6c0 0c0a 8ec0 c1b5 40bf
000003d0: db33 e0bf 7374 57bf 0582 06bf a1f7 68c0
000003e0: 4a8e dcc0 25a9 b2bf ae39 91bf 3b30 14c0
000003f0: a4f6 3fbf 5b3a f040 e5c4 96bf b47c c4bf
-0.22459185 -4.946241 -6.3785377 -0.9261408 -1.3939422 -1.8381181 1.2917371 -11.009147
-5.925255 -0.1159721 -0.32770678 -0.3414204 -0.77436227 3.4674764 -13.642303 2.5016441
0.4452093 -2.357912 -0.5753586 -4.4552603 -5.281336 -1.5357368 -1.7798282 -1.7812008
-0.093487866 -5.6605883 -5.6954165 -0.90230644 -1.5845306 -1.5376126 -0.44813207 -1.9480295
-3.4481807 -10.594119 1.1682107 -2.155198 0.115761966 -6.5871353 -4.8367643 -0.89506507
-1.7727877 -1.1551908 -2.4277813 -4.020609 -0.013070801 -1.136665 -6.423331 -1.0167747
1.3881372 -0.14624408 -2.6046839 -13.437277 2.8090057 -2.2608356 -0.081402436 -5.417942
-6.3000646 -0.84282684 -1.3581275 -1.7150698 -0.5628407 -3.7824996 -6.568095 -1.3756618
-1.3220593 -2.2052114 -0.6799611 -2.4992838 -7.5509605 -2.3650897 -0.16042453 -2.8932211
-0.06521506 -5.481884 -6.363712 -0.77703327 -1.3564835 -1.7015297 -0.800533 2.4160926
2.776129 3.1304708 -15.200555 -12.526904 -1.6061007 -3.076976 -2.395407 -5.9172835
-1.7465729 -2.045837 -0.91167504 0.6514505 -0.18351221 -0.1306093 -18.308239 11.341822
0.5004943 -7.583068 -6.0595107 -0.42750815 -1.2300555 -1.1766905 0.4178206 -8.296669
-1.3910184 -1.6413666 -2.5608835 0.18635339 3.8596308 9.073236 -0.23463477 3.0696816
0.28200436 -7.3697634 -0.35794175 -4.4673843 -6.3769617 -1.1398815 -1.3737063 -1.968876
-0.06970786 -6.010918 -4.88242 -1.0280225 -1.8168503 -1.2844877 -0.45361552 -4.3192563
-6.3113966 -1.1492665 -1.4841291 -1.9924964 -2.5945983 -3.8816283 0.05924748 -2.2850611
-5.969601 -1.328245 -2.9131148 -3.1116598 -0.9480846 1.477199 -8.844947 -1.4969673
-2.642167 -3.72809 0.31330857 -5.4158773 -4.775748 -1.9858618 -0.8196021 -5.0790024
-10.915115 0.68928075 1.0360857 -0.4571118 -0.5583915 -3.879291 -6.3828487 -1.5286711
-1.3139843 -2.188769 0.04457353 -5.8463206 -6.39847 -0.6728381 -1.3064411 -1.6105102
1.2728397 -0.7857264 -2.6906648 -13.140945 2.7509778 -2.1107647 -0.41662243 -2.9602582
-8.323735 -0.92295057 -0.5457568 -2.508984 -0.8435475 -4.5956316 -2.6369503 3.1959236
-0.63781875 -15.565834 -1.5317854 -14.578796 2.02311 -0.24876946 0.21465707 -0.8348428
-0.4202666 -4.455358 -5.9321303 -1.4336758 -1.4469782 -1.9275492 -2.5466497 -4.0300503
0.023966674 -0.5345042 -6.908732 -0.9025706 -0.40466994 -4.476133 -5.957055 -1.4892969
-1.3953782 -1.9531243 -7.198296 -1.1134874 3.4287896 -1.3113477 5.484183 -4.3761125
-0.3093529 -3.5702078 -9.065471 -0.24728185 -0.43072274 -2.1930897 -0.19724266 -4.1606236
-2.9104712 3.827608 -0.110852905 -15.498914 -4.587671 0.358298 7.2517257 3.3763642
9.340191 -0.2404766 0.3218081 -7.367564 -4.1974463 -0.8742886 -1.8740454 -0.8420342
0.44377902 -7.697402 -4.4387264 -0.75277334 -1.7515825 -0.8416206 -0.52542144 -3.640114
-6.8923693 -1.3957869 -1.1345727 -2.3154438 -0.7498572 7.5071235 -1.1778837 -1.5350556

input_to_hidden.bias f4 [220]
00000000: 5406 bdbf 371c 253f 7d29 1440 1ab8 53c0
00000010: a04e a0ba ba3f dd3f bcf6 94be 4569 cabf
00000020: f20d a53f 1f78 f2be eece 4dc0 c673 2b40
00000030: ad57 4abf 4cb6 61bf 4e02 4d3e db2d 59c0
00000040: c860 e3be d2f9 c53f 5568 84c0 53ba 8cbe
00000050: 90ab dd3d f002 38c0 a993 9cbf ea1d f0be
00000060: 2a64 a6bf 19a2 5a3f 86ea 45c0 42cb 963c
00000070: 8751 c13f ed42 f23f 1cc1 87bf 1e62 6a3f
00000080: ef70 7e3f de83 48bf 7e7b b33e 2ec6 c63f
00000090: 0dc4 423f 538d 013f 6773 efc0 b483 57bc
000000a0: e10a 1b3f dee7 06c0 a5c9 d6c0 81b9 cb3f
000000b0: 4468 0240 0bb3 adbf a536 bac0 6ee0 24c0
000000c0: 8368 c93f b0ad b8bf 496f 5cc0 f9a8 fdbf
000000d0: 8bca dcbe 0e5b 9f3e 2d7a a53e 9d04 f0bf
000000e0: 8941 0e40 fc94 6bc0 0be6 95be 2add 663f
000000f0: 02e3 25bf 5924 11c0 c57d 2540 b2ef 8a3f
00000100: e03f 8fbd cadd 69c0 3747 183f 5e7e dd3f
00000110: 61c1 ed3f 510a 303f 1234 d23f 473d 0d3f
00000120: ec13 1fc0 4696 383e 14a7 283f f35e 40bf
00000130: 1454 2440 24b3 793f 25ad 9c3f 4440 fabe
00000140: 3d80 acc0 3aea e9c0 26a8 6f3f da39 a73e
00000150: 2bbe c53f b6cd 0cc0 628e 09c0 9518 ec3e
00000160: cfc5 c93f dc2a a23f 493c 4540 e660 8e3f
00000170: 3280 0440 4de2 48c0 8039 573f ad31 b93b
00000180: 0ae1 0840 75c6 49be 6557 72bf 47d8 fabf
00000190: 68e9 fb3e ca29 1ebe 2997 5f3f fc34 b83f
000001a0: b84e fdc0 9d2d f83f 26be 773e a6eb b1bf
000001b0: db48 5140 9624 c23f e606 1040 701b 813f
000001c0: 8701 c03f 1a3c bc3e 4e42 333f 05d3 a63f
000001d0: 0fc4 793f 3e21 0740 b5d0 53c0 6528 2340
000001e0: 5c57 853f 8af8 2c3e d1bb 663e 174f 483f
000001f0: 43f4 08c0 eacb e63f 617f 9cbf 2106 6cbd
00000200: 25e4 b3be 5f58 8a3f 7556 3e3e 80e6 d1bf
00000210: ef34 1ec0 b83b 37c0 dbb2 0d40 7040 4840
00000220: 212f 823f 8094 4f40 d855 1540 af74 6c3f
00000230: 7de2 9f3f 477f 583d a677 ecbe 12fa 0040
00000240: 0ffc 273f f8b1 fdbf fd67 7b3f df3c 9d3f
00000250: 4839 a93e e620 1dbe 1014 cc3f 5cc5 7bbe
00000260: 8d7a 2b3f e606 763f 2c9a 43c0 7a1c 19be
00000270: cca1 93bf da9d 7e3f a4e6 7ac0 da5c 813f
00000280: d81a 4ac0 c3d3 6aba f2b8 adbd 695c 22c0
00000290: 0c7a 9a3f ddd6 8d3f acac 263f 37b8 883f
000002a0: d677 2d3f c602 8bbf 9dcd 0840 c63c 22bf
000002b0: d55d 84bf 29d1 3940 aa38 0d3f 13cb 21c0
000002c0: 4486 f73e cff3 97bf 8a73 14c0 c6ee 003f
000002d0: ff7d cd3f 3279 f63e cfe9 aec0 dcbb 35be
000002e0: 511e 2940 89ab dd3f cb93 c23f a5a8 bcbf
000002f0: 0290 dc3f d682 b63e ddbd f4bf c5bf 5440
00000300: f068 2f40 7c66 f7bf e071 2c3f 9858 24c0
00000310: d53e 00c0 3030 5cc0 5160 b03f 7ade f43f
00000320: a622 b23f a3c1 833f 415b c53f ab68 11bf
00000330: ec32 47be 94fa b73e 2f77 763f dbbe 19c0
00000340: 86b3 b73f 9228 a93f 62b6 9cbf bb30 85c0
00000350: 746e 5ac0 71b4 c7bf ca05 5fbe 7e69 e5bf
00000360: 6fae be3f 2f0e 463f 9e47 0fc0 e1c6 56be
-1.4767556 0.6449618 2.3150322 -3.3081117 -0.0012230463 1.7285073 -0.29094493 -1.5813376
1.2894881 -0.4735727 -3.215755 2.6789412 -0.7904003 -0.8816879 0.2002041 -3.3934238
-0.44409776 1.5466864 -4.137736 -0.27485904 0.108237386 -2.8751793 -1.2232562 -0.46897823
-1.2999318 0.8540359 -3.0924392 0.018407468 1.5103005 1.8926674 -1.0605807 0.91555965
0.99391073 -0.78326213 0.35055155 1.552923 0.760804 0.5060627 -7.482837 -0.013153959
0.60563475 -2.107902 -6.712115 1.5915986 2.0376139 -1.3570265 -5.8191705 -2.576198
1.573502 -1.4428005 -3.4442923 -1.9817191 -0.43123278 0.31124157 0.32319775 -1.8751408
2.22275 -3.6809683 -0.2927707 0.9018122 -0.6479951 -2.2678435 2.5858014 1.0854399
-0.06994605 -3.654162 0.59483665 1.7304189 1.857464 0.6876574 1.6422141 0.55171627
-2.485591 0.18026075 0.6587994 -0.7514488 2.5676317 0.9753897 1.224034 -0.48877156
-5.390654 -7.309842 0.9361595 0.32661325 1.544866 -2.2000556 -2.1493154 0.46112505
1.5763491 1.266933 3.0818045 1.1123321 2.0703244 -3.1388123 0.84072113 0.005651674
2.1387353 -0.19704612 -0.94664603 -1.9597253 0.49201512 -0.15445629 0.8734003 1.439117
-7.915859 1.938892 0.2419363 -1.3900039 3.2700717 1.5167415 2.250421 1.0086498
1.5000466 0.36764604 0.7002305 1.3033148 0.97564787 2.111404 -3.3096135 2.5493405
1.0417285 0.16891685 0.22532584 0.7824568 -2.1399086 1.803098 -1.2226373 -0.057623032
-0.35134998 1.0808219 0.18587668 -1.6398468 -2.4719808 -2.86302 2.2140415 3.128933
1.0170633 3.2434387 2.3333645 0.92365545 1.2490994 0.052855756 -0.46185035 2.015263
0.65618986 -1.9819937 0.9820555 1.2284201 0.33051515 -0.15344581 1.5943623 -0.24587005
0.6698387 0.96104276 -3.056285 -0.14952269 -1.1533751 0.9945961 -3.9203272 1.0106461
-3.1578884 -0.00089579466 -0.08482541 -2.5368903 1.2068496 1.1081196 0.65107226 1.0681218
0.6776098 -1.0860221 2.1375496 -0.6337398 -1.0341135 2.9033911 0.5516459 -2.5280197
0.48344624 -1.187128 -2.319552 0.5036434 1.6054076 0.4813934 -5.466041 -0.17747444
2.6424754 1.7317973 1.5201353 -1.4738966 1.7231448 0.35646695 -1.9120442 3.3242047
2.7407799 -1.9328151 0.6736126 -2.5679073 -2.003835 -3.4404411 1.3779393 1.9130394
1.3916824 1.0293468 1.5418473 -0.56800336 -0.19453019 0.35933363 0.9627561 -2.402274
1.4351661 1.3215506 -1.2243159 -4.1621985 -3.4129915 -1.5601941 -0.21779552 -1.7922819
1.4896983 0.7736539 -2.2387462 -0.20974304

hidden_to_output.weight f4 [1, 220]
00000000: d80a 5640 847a 8140 d409 cf40 4e47 3e40
00000010: 8c0a 5c40 78ca 9040 0e81 5d40 2b7b a540
00000020: 1a25 5840 2653 6040 3b5e 4240 d8fd ad40
00000030: d08d 5a40 2576 a540 2b6c 9540 5554 d1c0
00000040: c317 5040 7e10 9840 9ee2 a9bf 5b3e 6340
00000050: f0f4 6140 ca35 3d40 25bb 9d40 d235 c440
00000060: 7ff0 8840 61c3 9740 d44b 4a40 7892 5f40
00000070: 435c 5840 4256 8e40 d821 9bc0 dd92 9840
00000080: de5b 7040 d4bd b640 062b 7440 3d77 3340
00000090: 7044 7d40 ac59 aec0 40a6 25c0 8f32 6140
000000a0: 1992 6240 193a 5c40 34b6 873a ebb4 84c0
000000b0: fbf5 9140 a304 ac40 a39b f5bf 6946 4640
000000c0: 47f4 6e40 95d2 8c40 0115 3640 0abc 5440
000000d0: e710 b240 1b91 9340 6089 abc0 02dc 92c0
000000e0: 8d47 92c0 e72b 3d40 f6db 94c0 ba54 8740
000000f0: 2ace 7d40 c206 7d40 1565 9840 bc5a 7f40
00000100: 5b4a 6340 1765 9240 70f5 8440 9b48 d240
00000110: 8c4f cb40 c177 4f40 0bee 9940 c912 5c40
00000120: d89d 4b40 5895 6d40 cc0a 6640 4c6e 5940
00000130: a116 b540 70a4 e73f 375c 9840 6322 5640
00000140: 6957 f6bf 32eb d53e cf10 6d40 3f6b 9540
00000150: 3e87 9840 1ffc 9640 8891 6b40 3272 5e40
00000160: 0748 d940 1e2c 8140 3541 bc40 d5f0 a040
00000170: 2da8 0a40 26e0 4040 8d5c 6640 99c0 6440
00000180: 593e 9540 de36 6c40 394e 7f40 4814 8a40
00000190: 8fe3 6b40 a3bd 8a40 5420 5f40 de6f 8f40
000001a0: 3839 4b3f ad87 9f40 3ff4 9a40 2834 9bc0
000001b0: 132d bb40 6600 9040 0d7f 9640 c08c 8840
000001c0: ff89 8140 e2d6 6140 2c7a 7740 586b 8e40
000001d0: d082 6040 7486 9340 771a 2c40 bacb b940
000001e0: 34d7 7d40 caa2 6140 d15a 6340 90d6 6140
000001f0: 39d5 4b40 293c a940 02fa 5a40 a126 aac0
00000200: 33a3 6240 e1c4 8e40 2e3d 5e40 3487 9e40
00000210: b766 a140 2ca5 4640 f3b3 9a40 977a bb40
00000220: 94f4 82c0 1bb5 c940 9b19 55c1 cd88 b340
00000230: 64bb 8e40 27bb a0c0 46e1 80c0 ab3c ae40
00000240: 9b17 bcc0 20dd 0840 3f7d 6c40 2453 8c40
00000250: cc8c 6d40 c99a 7740 8c51 d640 5ffb 6340
00000260: 190e 6440 9a0b 7d40 8206 7a40 1abc 6140
00000270: 9e80 8cc0 4ca7 8f40 af16 3640 45e7 ba40
00000280: 476c 4240 ed09 c940 0a41 9dc0 dbde 8240
00000290: 7514 8a40 4b62 7b40 83c5 6740 1e4a 7a40
000002a0: eae2 5c40 76be 6640 d661 a940 f122 6d40
000002b0: 7e67 6d40 51d6 dc40 2e03 6f40 5f5a 9440
000002c0: 459c 6040 c2df ae40 ded5 8d40 4ae5 8340
000002d0: 3c70 a640 4664 6b40 2326 82c0 d132 cc40
000002e0: 6402 bd40 d935 9640 4145 8440 2660 8040
000002f0: b622 8d40 5d51 7e40 c0be 8340 1aed bc40
00000300: 8fef bd40 86ec 9940 9c63 d640 e141 4940
00000310: 16be 4e40 3938 3540 7c83 7340 63b2 9940
00000320: 0597 9440 f064 6b40 6c58 df40 561c 7440
00000330: 82f2 5e40 816b afc0 72c5 8740 bdd2 5140
00000340: 4349 9140 7688 8740 ad69 5f40 69b7 2b40
00000350: e3ff 40c0 aae3 5840 b5ec 7140 a73c 9940
00000360: cc83 8f40 ddeb 35c0 b6dc 4840 6f1f be40
3.3444118 4.0462055 6.4699497 2.973102 3.4381437 4.5247154 3.4610019 5.171285
3.3772645 3.505075 3.0370014 5.437237 3.4149055 5.170672 4.669454 -6.5415444
3.2514503 4.752013 -1.3272283 3.5506809 3.5305748 2.956408 4.929095 6.13157
4.2793574 4.7426 3.1608782 3.4933147 3.3806312 4.4480295 -4.8478813 4.7679276
3.7556071 5.7106724 3.815126 2.8041527 3.957302 -5.4484463 -2.588272 3.5187109
3.540167 3.441046 0.0010353983 -4.1470847 4.561277 5.375566 -1.9188122 3.0980475
3.7336595 4.400706 2.845032 3.323977 5.5645633 4.611463 -5.3605194 -4.5893564
-4.571234 2.9558046 -4.6518507 4.2290926 3.9657083 3.9535375 4.762339 3.989913
3.5514133 4.57484 4.1549606 6.571363 6.3534603 3.2416842 4.810308 3.4386466
3.181509 3.7122402 3.594409 3.397357 5.6590123 1.8097057 4.7612567 3.3458488
-1.9245425 0.41781002 3.704151 4.6693416 4.766509 4.7182765 3.6807575 3.47572
6.7900424 4.0366354 5.88296 5.0293984 2.1665146 3.013681 3.5993989 3.5742552
4.663861 3.6908488 3.9891493 4.3149757 3.685764 4.335649 3.4863482 4.4824057
0.79384184 4.985312 4.842315 -4.8501167 5.849252 4.5000486 4.703009 4.2671814
4.048095 3.5287404 3.8668318 4.4506035 3.5079842 4.6101627 2.6891153 5.806119
3.96626 3.5255609 3.552418 3.5287209 3.184889 5.288594 3.4215093 -5.3172154
3.541211 4.461533 3.472484 4.9540043 5.0437884 3.1038313 4.8344665 5.8587146
-4.0923557 6.3033576 -13.318751 5.6104493 4.460375 -5.0228457 -4.027499 5.4449058
-5.8778815 2.1384964 3.6951444 4.385149 3.7117186 3.8688223 6.6974545 3.5622175
3.5633605 3.953833 3.9066472 3.5271058 -4.3907003 4.489172 2.8451345 5.840731
3.0378587 6.2824616 -4.9141893 4.089704 4.314997 3.9278743 3.6214302 3.9107738
3.4513497 3.6053748 5.293193 3.7052577 3.7094417 6.9011617 3.734569 4.6360316
3.509538 5.464814 4.432357 4.1217394 5.2012005 3.6779952 -4.0671554 6.381203
5.906542 4.694073 4.133454 4.011737 4.410487 3.973716 4.117035 5.903943
5.935493 4.8101225 6.6996593 3.144646 3.230352 2.8315566 3.8049002 4.8030257
4.643435 3.6780357 6.9795437 3.8142295 3.4835515 -5.481873 4.242852 3.2784874
4.540193 4.235408 3.490825 2.6830695 -3.015618 3.3888955 3.7800725 4.788654
4.4848385 -2.842521 3.1384711 5.941337
