trainingruns/1hiddenLR.01/saved/saved_model.pkl (torch, 9136 bytes, 3 tensors)

input_to_hidden.weight f4 [220, 6]
000000 b1 38 02 c0 ff 74 0e c0 11 13 0f c0 d9 9a 46 c0
       -2.0347102 -2.2258909 -2.2355387 -3.1032012
000010 2f 8f 3b c0 05 0f ff bf 13 cc ed be c8 eb 10 c0
       -2.9306142 -1.9926459 -0.4644476 -2.264391
000020 66 4b b5 c0 64 b1 21 c0 df 78 cb 3e 94 43 20 c0
       -5.665454 -2.526452 0.39740655 -2.5041246
000030 85 fe 03 bf b8 5e 0b c0 09 24 a2 c0 b7 d5 51 c0
       -0.5156024 -2.1776562 -5.066899 -3.278669
000040 c2 f3 c5 3e 7b ee 29 c0 4c a1 12 bf 1f 6a 96 bf
       0.38662535 -2.6551807 -0.5727737 -1.1751136
000050 03 fe fe c0 6b 7d a0 bf 1a 5b 5a 3f eb da 33 c0
       -7.9685073 -1.2538275 0.8529526 -2.8102367
000060 12 e8 a0 be ab b6 c5 c0 74 7a b1 c0 a4 08 a7 bf
       -0.31427056 -6.1785483 -5.546198 -1.3049512
000070 5b 02 98 bd 94 1f 16 bf fe 81 1a bf 87 39 ab bf
       -0.07422324 -0.58641934 -0.603546 -1.3376931
000080 f6 fd e7 c0 fb bb 04 c0 80 b3 84 3f 07 f1 57 c0
       -7.249751 -2.0739734 1.0367279 -3.3740861
000090 78 a8 99 c0 7b 90 f6 3f 23 aa 1e 40 85 2e ef 3f
       -4.801815 1.9262842 2.4791343 1.8686072
0000a0 96 73 89 c0 83 39 ee 40 f4 36 84 3e 70 8f 1c 3e
       -4.2953596 7.4445205 0.25823176 0.15289092
0000b0 44 a1 ef 40 74 10 19 3e d1 a2 0e bf 80 02 03 40
       7.4884357 0.14947683 -0.5571719 2.0470276
0000c0 27 56 17 bf c2 c0 01 c0 aa 83 ae c0 19 22 2c c0
       -0.59115833 -2.02739 -5.4535723 -2.6895812
0000d0 5d ec 86 3e f8 a2 24 c0 9b 4c b6 be 1e 6f 64 c0
       0.26352206 -2.5724468 -0.3560532 -3.569282
0000e0 39 e5 a6 c0 6d 35 12 c0 c3 bd 9c 3d 26 a3 d9 bf
       -5.2154813 -2.2845109 0.07653382 -1.7002914
0000f0 49 ee ac be 11 40 3b c0 39 8b c4 c0 d5 01 07 c0
       -0.33775547 -2.9257853 -6.141995 -2.1094868
000100 7e 68 00 3f 91 b5 05 c0 62 f7 3d bf 3a fc 25 c1
       0.5015944 -2.089207 -0.742056 -10.374079
000110 ba da 86 be f5 f0 4d 3f 98 8d c1 3e bd 7a 0e 3e
       -0.2633875 0.80445796 0.3780334 0.13914008
000120 63 40 8d 3f 43 50 00 be db 42 2d 3f 01 14 29 c1
       1.1035274 -0.12530617 0.6768014 -10.567384
000130 2a b7 b0 3f b2 58 e7 bf fe e3 f3 be 4a 2b 10 c0
       1.3805897 -1.8073943 -0.47634882 -2.2526422
000140 7c d2 af c0 b6 d3 24 c0 de ae a1 3e 7c ad 18 c0
       -5.494444 -2.5754218 0.31578726 -2.3855886
000150 ca af 00 bf 81 a1 96 bf c1 da 15 c1 e8 5b a6 bd
       -0.5026823 -1.1768037 -9.365907 -0.081229985
000160 9a e5 4f 3f 0d c2 28 c0 da eb 7b 3f 48 65 32 c1
       0.8120972 -2.636844 0.98406756 -11.149727
000170 b8 bc 89 3f 29 21 c9 bd d4 17 bb be ec fb 92 3f
       1.0760717 -0.09820778 -0.36541617 1.148313
000180 4a a1 02 bf f0 41 fd bf dc 9d b6 c0 72 c0 2d c0
       -0.5102736 -1.9785748 -5.70677 -2.714871
000190 8d 48 03 3f 6d 61 2e c0 a2 1e da be db 32 73 c0
       0.5128258 -2.7246964 -0.42601496 -3.799979
0001a0 51 54 1c c0 69 50 49 40 29 7c 39 c0 d7 5b 18 c1
       -2.4426463 3.1455328 -2.8982031 -9.522422
0001b0 44 44 2f c0 9b d6 69 c0 f2 f1 4a c0 c6 18 d7 bf
       -2.7385416 -3.6537235 -3.1710172 -1.6804435
0001c0 a0 4d 25 c0 12 a4 be c0 92 4b 23 be 43 b7 15 c1
       -2.5828629 -5.957528 -0.15946797 -9.357242
0001d0 eb 9b 95 bf d3 70 34 bf 7f 14 87 bf 08 8f ff 3f
       -1.1688207 -0.70484656 -1.055313 1.9965525
0001e0 16 5c ec 3e 4b cc 3f c1 13 ec 47 3f d4 8b 62 3f
       0.46164006 -11.987376 0.78094596 0.8849461
0001f0 b9 90 24 3f d6 88 0c bf 44 b9 3f bf 21 ba a9 bf
       0.6428333 -0.54896295 -0.7489207 -1.3259927
000200 38 21 d0 c0 65 16 46 c0 0a 3c 8f 3f 8b 0d 7f c0
       -6.504055 -3.0951169 1.1190197 -3.9852016
000210 74 a4 40 be 41 f5 0a c0 1b 51 08 c0 d5 5f 8a 40
       -0.18812734 -2.171219 -2.1299503 4.3241982
000220 70 c5 0d c0 a3 e9 3f c1 27 75 58 bf 0b b1 d0 bf
       -2.2151756 -11.99454 -0.8455376 -1.6304029
000230 f2 47 87 c0 ee 35 9e c0 8b a2 a5 3e 35 c8 4d c0
       -4.2275324 -4.944083 0.32350573 -3.2153447
000240 24 18 91 bd a5 01 17 40 60 66 41 c1 bc 9e 0a 40
       -0.070846826 2.3594754 -12.087494 2.1659384
000250 00 07 24 3f 81 b6 43 c0 e8 31 6c 3e 79 2c 2e c1
       0.6407318 -3.0580142 0.23065913 -10.885858
000260 63 64 5f 3e 6c ee ec 3d a1 2c 3b 3c 90 65 7c 3f
       0.21815638 0.11568913 0.011424215 0.9859247
000270 f5 ef fa bf 42 4a dd bf 8e b4 3e c0 a7 82 59 c0
       -1.9604479 -1.7288287 -2.9797702 -3.3985994
000280 9e 67 0d c0 61 9d 19 c0 c6 08 5b c1 8b 01 85 40
       -2.2094493 -2.4002306 -13.689642 4.1564384
000290 eb fd 9a 3e 9c 26 ea 3f 7d ad 6e 3e 09 47 b2 3f
       0.3027185 1.8293033 0.23308368 1.3927928
0002a0 3b 19 8d bf 55 b2 39 c0 c8 76 4c c0 02 75 76 40
       -1.1023325 -2.9015095 -3.1947498 3.8508916
0002b0 d6 bf 04 c0 7e 0e 32 c1 22 d8 ec bf 99 f8 fa 3f
       -2.0742087 -11.128538 -1.8503458 1.9607116
0002c0 bb 6d 97 3f 71 47 0d 40 0f 38 35 c1 7b 2d 0d c1
       1.1830362 2.2074854 -11.326186 -8.823604
0002d0 bd fc f8 be 78 40 2a c0 8c f1 9f c0 55 b1 25 c0
       -0.48630324 -2.6601849 -4.9982357 -2.5889485
0002e0 e3 ec 05 3d e2 5b 06 c0 c4 d1 b9 be b7 17 12 c0
       0.032696616 -2.099358 -0.3629285 -2.2826974
0002f0 03 0a f1 bf e7 d9 70 40 c8 53 eb bf 87 33 43 c1
       -1.883118 3.7632997 -1.8384943 -12.20008
000300 79 b6 df be 42 55 1b c0 4a 0f b2 c0 ba a0 1b c0
       -0.43693903 -2.4270787 -5.5643663 -2.431685
000310 a7 76 9e 3e 43 bf 12 c0 21 4b e2 be 6f c9 02 c0
       0.309499 -2.2929237 -0.44197944 -2.0435445
000320 1c c6 cd c0 45 57 06 c0 86 a1 1c 3f 0d 77 22 c0
       -6.4304333 -2.0990765 0.61183965 -2.5385163
000330 13 82 d8 be 5d 4b 07 c0 a4 6b f8 c0 5d 60 95 bf
       -0.4228674 -2.1139748 -7.7631397 -1.1670033
000340 f4 aa 4c 3f 17 a6 18 c0 bc 28 dd bf d6 af 3e bf
       0.79948354 -2.3851373 -1.7278056 -0.74487054
000350 03 17 95 bf 0a e4 0e c1 66 f0 42 bf 52 fa 70 c0
       -1.1647648 -8.930674 -0.7614807 -3.7652783
000360 b7 7d 72 3e 35 8b 28 c1 e5 0f 4b be d8 b3 c4 be
       0.23680769 -10.533986 -0.19830282 -0.3841846
000370 04 35 9b be a6 c1 b6 3f 99 89 20 c0 2b 11 de bf
       -0.30313885 1.4277847 -2.5083983 -1.7348989
000380 50 7d 1c c0 46 33 2e c0 fc 9b 6b c0 f0 25 12 c0
       -2.4451485 -2.7218795 -3.6813955 -2.2835655
000390 eb b6 56 c0 a6 09 82 bf 74 a0 f2 bf c8 22 12 c0
       -3.3549144 -1.0159194 -1.8955216 -2.2833729
0003a0 fe 17 a6 c0 06 70 39 c0 8c 92 2d bf 09 18 03 c0
       -5.1904287 -2.8974624 -0.6780174 -2.048342
0003b0 eb 8f b2 c0 ee 37 11 c0 9e 46 b8 3c 54 f6 17 c0
       -5.580068 -2.2690387 0.02249461 -2.3744097
0003c0 09 50 b1 be 57 6e a9 c0 9a 11 98 c0 82 30 de bf
       -0.34631374 -5.294719 -4.7521486 -1.7358553
0003d0 0d f6 b9 be 27 4c 58 bf 18 46 6c c0 95 57 a5 bf
       -0.36320534 -0.844912 -3.6917782 -1.2917353
0003e0 60 3c b3 bf 4c 74 95 c0 81 aa 9f c0 92 80 5d c0
       -1.40028 -4.6704464 -4.9895635 -3.4609723
0003f0 6c 75 d6 bf e0 0f 62 c0 15 7e 6a c0 30 13 5a 40
       -1.6754584 -3.532219 -3.6639454 3.407421

input_to_hidden.bias f4 [220]
000000 35 18 a4 c0 13 81 bb bf 36 e8 13 3f 40 61 17 40
       -5.127955 -1.4648765 0.577762 2.3653107
000010 e4 e6 8e 3f 62 3d 0a 40 9e fa 65 c0 3d 32 05 c0
       1.1164212 2.1599965 -3.5934215 -2.0811913
000020 ef 85 b6 bf 18 85 65 3f 91 3d e4 3f 70 23 9c 3f
       -1.4259623 0.8965621 1.7831289 1.2198315
000030 79 6e ab 3e 5a e3 5e 3f 52 74 e2 3f c2 4c 2b 3d
       0.3348272 0.8706566 1.7691748 0.04182125
000040 b4 4b 2f 3f 2c 67 7d bf a5 5f 8c c0 6d 03 9c 3f
       0.6847489 -0.9898555 -4.3866754 1.2188545
000050 6e 30 93 3f 20 8c d5 3f 98 95 8c 3e 1c 2d 9e 3f
       1.1499155 1.6683388 0.2745788 1.2357516
000060 28 6c 8b 3f 27 05 05 3f 1d c8 a3 c0 e8 7f d4 bf
       1.0892382 0.51960987 -5.118178 -1.6601534
000070 da 0a aa bd 6e 39 63 3e 93 c0 e7 bd b7 29 96 be
       -0.08302851 0.22189876 -0.113160275 -0.293287
000080 2b aa ad 3e cb e4 da 3f 8d 0c ff 3f 5f 24 fc bf
       0.3391889 1.7101072 1.9925705 -1.96986
000090 ac 7a 1c 3f 78 9f 95 c0 07 d5 76 c0 f0 c2 08 c0
       0.6112468 -4.6757164 -3.8567522 -2.136898
0000a0 34 8b d1 3d 41 7e f4 bf 68 e9 59 bf 28 20 15 be
       0.10231629 -1.910103 -0.85121775 -0.14563048
0000b0 62 c9 ea bf d8 b6 83 3e 06 9b 23 c0 53 53 af 3f
       -1.8342707 0.25725436 -2.5563369 1.3697304
0000c0 b1 ac 54 3f 37 56 64 c0 48 6e 5c c0 08 43 9e 3f
       0.83076006 -3.5677621 -3.444231 1.2364206
0000d0 48 da 6d c0 99 89 b7 bf 72 b6 c6 bc 83 59 a1 c0
       -3.7164478 -1.4338866 -0.024256919 -5.0421767
0000e0 2a 44 ba 3f e2 c2 53 3e fb 61 81 c0 2c c7 05 c0
       1.4552052 0.2067981 -4.0432105 -2.0902815
0000f0 f4 97 3b c0 19 ff 97 bd dc 4d e3 3f 1f 19 aa c0
       -2.9311495 -0.07421703 1.7758136 -5.3155665
000100 c9 ab a5 3f c7 c2 9b c0 29 dd 17 3d a8 9a 47 be
       1.294305 -4.8675265 0.03707615 -0.1949259
000110 ea ea 98 c0 52 a4 33 40 9b eb 02 40 8b c6 a2 c0
       -4.778676 2.8069043 2.0456302 -5.086736
000120 3f 7a a8 3e 45 bf 2b c0 ab 16 98 c0 b3 33 54 bf
       0.32905766 -2.6835492 -4.752767 -0.82891387
000130 f5 63 a3 c0 1f 2f 02 40 12 35 ee be d5 df 7b bf
       -5.105952 2.034126 -0.46524864 -0.98388416
000140 9f d7 c9 3f e5 88 8e c0 22 55 11 40 4f bb 25 3f
       1.5768927 -4.4542108 2.270821 0.64738935
000150 1e 3d 94 c0 3b 54 b1 bf 18 df 41 c0 19 ef 97 c0
       -4.6324606 -1.385383 -3.0292416 -4.7479367
000160 18 99 25 3f 03 55 ab 3f fe fb 46 3f d8 97 54 bd
       0.6468673 1.3385319 0.7772826 -0.051902622
000170 e6 e6 92 c0 aa 04 06 c0 ca c0 27 c0 bc 8a b7 3f
       -4.590686 -2.0940347 -2.621142 1.4339213
000180 9f 89 3c bf 04 b0 86 c0 44 28 2a 3f dd 3e 7a c0
       -0.73647493 -4.2089863 0.6646769 -3.9100869
000190 20 3c ab be 2b 92 27 c0 9b c1 5d c0 2d ef 00 3f
       -0.3344431 -2.6182964 -3.4649417 0.50364953
0001a0 27 e5 9f bf 73 c7 17 c0 cb 2a 89 3f 69 8e 31 3f
       -1.2491807 -2.3715484 1.0716184 0.69357926
0001b0 63 06 f8 3d 28 04 3c c0 70 2a b3 3e dc f6 86 3e
       0.12110593 -2.9377537 0.34993315 0.26360214
0001c0 b6 d0 be 3d 95 5a 5e 3f 82 aa 07 c0 62 a3 4a c0
       0.09317152 0.8685697 -2.119782 -3.166222
0001d0 0f 23 39 3f 8e 48 3e bf 23 d7 aa 3f 2b 2f 9c 3e
       0.7231912 -0.7432946 1.3346905 0.30504736
0001e0 28 fb c7 3e 13 61 94 3f 90 7e 97 c0 62 76 e8 bc
       0.39058805 1.1592125 -4.7341995 -0.028376762
0001f0 00 27 a2 c0 69 87 1b c0 3e f1 32 bf d2 88 39 3e
       -5.0672607 -2.4301398 -0.69899356 0.18118599
000200 1e 9d 94 c0 d5 dc 8a c0 c2 67 37 3f d9 55 aa bf
       -4.6441793 -4.339457 0.71642697 -1.3307449
000210 90 f9 9a c0 b4 29 8e be d3 19 8a 3e 7a ba e9 3d
       -4.842964 -0.27766192 0.26972827 0.11412521
000220 ac a4 24 3f b6 93 8f c0 e8 75 d0 be 3e 18 be 3f
       0.6431377 -4.486781 -0.40714955 1.4851148
000230 70 b6 00 3f fb 06 0e c0 30 ee 6d c0 e4 1c 3f bf
       0.5027838 -2.219176 -3.7176628 -0.7465346
000240 87 6c 64 c0 2c 6f 94 c0 29 b9 6f c0 18 c9 c8 3e
       -3.569124 -4.638571 -3.7456763 0.39215922
000250 b5 10 8f 3e 0c 48 ca 3e 39 a5 4b c0 15 d9 2f 3e
       0.27942434 0.39508092 -3.1819594 0.17172654
000260 0b a6 df 3c ac 4e 98 3f 3f dc 95 3f 36 03 11 c0
       0.027300855 1.1899009 1.1707839 -2.265821
000270 14 cd 3f c0 c4 d3 e4 3f f2 af 6d c0 6c 5a 7d 3f
       -2.996892 1.7877126 -3.7138638 0.989661
000280 81 78 0c c0 7b e4 08 be ae 96 82 3f 9b b2 51 bf
       -2.194855 -0.13368408 1.0202234 -0.81913155
000290 bb 67 e3 3f 07 35 12 c0 87 c5 53 c0 4c f6 01 be
       1.7766031 -2.2844865 -3.308931 -0.12691611
0002a0 d8 e4 cc 3f b7 16 01 3f 3f 71 d8 3f c6 96 81 3e
       1.6007338 0.50425285 1.690956 0.25310344
0002b0 5c 1a b2 be 34 08 a1 c0 d1 85 24 c0 88 d5 6b 3f
       -0.34785736 -5.0322514 -2.5706675 0.921227
0002c0 3a 88 1a be 38 4c 33 3e 5b 38 fe 3f 79 96 4c c0
       -0.15091029 0.17509544 1.9860948 -3.1966841
0002d0 66 34 a2 c0 5b 63 c3 3f 6e cb 90 c0 e1 3f f8 bf
       -5.0688963 1.5264696 -4.5248327 -1.9394494
0002e0 35 68 68 c0 eb ac 56 c0 25 d6 67 be 84 76 45 3e
       -3.6313603 -3.354304 -0.22640283 0.19283491
0002f0 1f b1 58 c0 f1 c5 cc 3e d8 b1 18 40 5e b5 f6 bf
       -3.3858106 0.39994767 2.3858547 -1.9274099
000300 5b 3a 9d c0 1b 0c f4 3f 01 39 24 3f 9a 0b d7 3f
       -4.9133735 1.9066194 0.6414948 1.6800416
000310 9c d3 80 c0 8e 23 d1 3f b1 13 9b be 9d e4 1f bf
       -4.025831 1.6338975 -0.3028846 -0.6245821
000320 34 94 b1 be 01 30 c6 bf ff 0b 46 c0 df 19 17 3f
       -0.34683383 -1.54834 -3.0944822 0.5902385
000330 e7 66 73 3f ad 20 94 3f aa 56 71 bf 10 7c f3 3e
       0.9507889 1.1572472 -0.94272864 0.4755559
000340 20 04 87 c0 c6 a7 ea be c5 24 12 3f 7d c9 f8 be
       -4.2192535 -0.45831126 0.57087356 -0.48591223
000350 84 5c c7 3d 32 55 d4 be 4e 20 39 c0 a1 98 87 bf
       0.09734443 -0.4147125 -2.8925967 -1.0593454
000360 b5 f2 bc bc 9d 8f ba bf d8 75 26 c0 2b 71 ca 3f
       -0.02306495 -1.4575077 -2.6009426 1.5815786

hidden_to_output.weight f4 [1, 220]
000000 88 5b a8 3f f3 74 34 40 10 71 49 40 b9 d1 93 40
       1.3152933 2.819638 3.1475258 4.619351
000010 28 59 37 40 10 6c 8f 40 a8 f2 24 c0 a2 18 1d bf
       2.8648167 4.481941 -2.5773106 -0.6136571
000020 72 24 23 40 cb d2 2a 40 cf ce 5f 40 40 31 1b 40
       2.5490994 2.6691158 3.4969976 2.424881
000030 79 b5 28 40 b2 90 48 40 d1 5a 7c 40 64 84 45 40
       2.6360762 3.1338315 3.943043 3.0862055
000040 fc 31 59 40 06 f7 7d c0 7b c9 98 bf ab 87 5f 40
       3.3936758 -3.968202 -1.1936487 3.4926555
000050 c6 3d 73 40 4a e2 82 40 9b 77 9a c0 c4 15 45 40
       3.8006454 4.090123 -4.8271003 3.0794535
000060 ee 2f da 40 5d cf 3e 40 ac 41 9a 3f 69 f7 20 40
       6.818351 2.9814065 1.2051291 2.5151007
000070 ea d1 79 c0 b4 39 97 40 08 2f 1f 40 f3 2b 64 c0
       -3.9034371 4.725794 2.4872456 -3.5651824
000080 77 aa 42 40 78 33 73 40 1c a9 81 40 ac 90 ae 3f
       3.0416543 3.8000164 4.051893 1.36379
000090 ab b5 43 40 b0 0d be 3f 0a 62 fc 3f 92 2c 06 40
       3.0579631 1.4847927 1.9717419 2.0964704
0000a0 dd 9d 0d 40 1d da 1b 40 f5 70 58 c0 e1 e1 1f 40
       2.2127602 2.4351876 -3.3818944 2.4981616
0000b0 3e 15 c4 be a8 ba 14 40 54 4a f2 3f 01 8a 70 40
       -0.38297457 2.3238926 1.8928933 3.758423
0000c0 04 12 53 40 9f 0b 50 c0 7b 1f e1 3f 5e 6d 1b 40
       3.2979746 -3.2507093 1.7587732 2.4285502
0000d0 3d 9a e9 3f fa 5a 73 40 d8 5b 83 c0 e4 7c 8e 3f
       1.8250195 3.8024278 -4.1049614 1.1131864
0000e0 92 32 48 40 da 60 3a 40 1c fe 03 40 04 d0 15 40
       3.1280866 2.9121614 2.0623846 2.3408213
0000f0 5d 80 02 40 09 3c 17 40 58 ba 75 40 fc b3 01 3e
       2.0390847 2.3630393 3.8394985 0.12666315
000100 57 17 59 40 d0 f6 9b 3f ab f7 11 40 e1 c0 24 40
       3.3920496 1.2184696 2.2807415 2.5742724
000110 f7 7e 9b 3f 1a 4a a3 c0 3f 98 e3 c0 8b 2f 9a 3f
       1.2148122 -5.1027956 -7.1123347 1.2045759
000120 5f e7 30 40 fb 1b fd 3f b6 17 99 3f 34 db 86 40
       2.7641218 1.9774164 1.1960361 4.214258
000130 ab ee a3 3f c8 22 69 40 03 ae 2a 40 30 01 02 41
       1.2807211 3.6427479 2.6668708 8.12529
000140 83 66 61 40 6e 17 df 3f fd 75 bb c0 14 08 92 40
       3.5218818 1.7429025 -5.858153 4.563486
000150 8f 81 bf 3f bd 16 80 c0 00 61 0f c0 cc f0 ae 3f
       1.4961413 -4.0027757 -2.2402954 1.3667235
000160 10 9b 3f 40 22 8a e5 40 12 34 34 40 ae 51 3a 40
       2.9938393 7.173112 2.8156781 2.9112353
000170 67 cf a6 3f 07 91 53 c0 ce 9d 30 40 b6 6d 77 40
       1.3032044 -3.3057268 2.7596316 3.8660712
000180 15 8f 3a c0 28 f1 eb 3f e3 04 7f 40 d1 eb 95 bf
       -2.914983 1.843297 3.9846733 -1.171259
000190 fc a9 1e 40 ed b3 04 40 a8 3b 13 40 1c b6 92 c0
       2.479125 2.0734818 2.3005161 -4.58473
0001a0 f2 04 25 40 f7 fa 0b bf 83 83 4d 40 8a 16 4c 40
       2.5784268 -0.54679817 3.2111518 3.1888757
0001b0 b6 2c 37 40 ac 70 48 bf 0e 44 1e 40 28 96 07 40
       2.862104 -0.78296924 2.4729037 2.1185398
0001c0 b1 5b 0d 40 d7 87 47 40 54 43 23 40 1a ad dd 3f
       2.2087214 3.117666 2.5509844 1.7318451
0001d0 6b 47 49 40 bd 33 1e 40 de 35 0b c1 4a 69 1f 40
       3.144984 2.4719079 -8.700651 2.4908013
0001e0 97 7a 33 40 cc 0c f2 3f e1 9c b5 3f 35 22 37 40
       2.8043573 1.8910155 1.4188501 2.8614628
0001f0 10 ce 93 3f 11 06 d0 3f 67 b3 5d c0 2e 41 c1 40
       1.154726 1.6251851 -3.4640749 6.0392065
000200 b1 c1 95 3f 87 cd c6 3f b0 d6 61 40 7d 28 5e c0
       1.1699735 1.5531472 3.5287285 -3.4712212
000210 97 a4 a8 3f 8e 0a 2d 40 cd 1b 2c 40 4b d2 23 40
       1.3175229 2.7037692 2.6891968 2.5597103
000220 88 de 1d 40 6a ca b6 3f 1f 0c 90 c0 ba ee 59 40
       2.4667072 1.4280522 -4.5014796 3.4051957
000230 47 ea 32 40 3e aa 09 40 b2 d3 d3 3f e0 7c 8a c0
       2.7955492 2.1510158 1.6548979 -4.3277435
000240 3c 13 d7 3f bd b6 9b 3f b0 72 eb bf b4 88 43 40
       1.6802745 1.2165142 -1.8394375 3.0552187
000250 21 69 23 40 6b c7 8c c0 f0 e3 f1 3f 21 36 27 40
       2.5532916 -4.399343 1.8897686 2.6126788
000260 3b 4b 3a 40 0c ef 4e 40 be d5 42 40 b7 f4 20 40
       2.9108417 3.2333403 3.0442958 2.5149362
000270 5b f1 03 40 a2 a9 87 40 fc c0 e2 3f 06 b2 40 40
       2.0616062 4.239457 1.7715144 3.0108657
000280 a3 64 58 40 bb 4b 86 c0 e1 33 45 40 7d 82 70 c0
       3.3811424 -4.1967444 3.0812914 -3.7579644
000290 46 26 6d 40 6d 8c 11 40 f7 12 e2 3f 93 e1 82 c0
       3.705461 2.274196 1.7662038 -4.090036
0002a0 80 6a 53 40 a6 ec ea 3f 0c 6a 82 40 3e 8f 3b 40
       3.3033752 1.8353469 4.075445 2.9306178
0002b0 bd 24 23 40 ba 0b b3 3f 23 a6 ed 3f 0a 61 49 40
       2.5491173 1.3987954 1.8566326 3.1465478
0002c0 38 f4 14 40 d4 68 22 40 40 21 73 40 4f f7 d9 be
       2.327406 2.5376482 3.7989044 -0.42571494
0002d0 ba 9d 9f 3f 86 7d 5f 40 bb f9 a4 3f 22 11 17 40
       1.2470009 3.4920363 1.2888712 2.3604207
0002e0 db eb db 3f 88 b6 fe 3f cb 24 99 c0 f1 00 4e 40
       1.7181352 1.9899454 -4.7857413 3.2188075
0002f0 27 b3 ec 3f 2b c1 32 40 5b 19 96 40 17 43 0f 40
       1.8492173 2.79304 4.690595 2.2384698
000300 86 e3 a7 3f ac c3 91 40 d5 db 33 40 48 83 66 40
       1.311631 4.5551357 2.8102925 3.6017628
000310 be e0 f6 3f 77 33 5d 40 05 99 f5 3f d5 02 e3 3f
       1.9287336 3.4562662 1.9187323 1.7735239
000320 f4 85 3e 40 7e 61 7c c0 a2 9a fe 3f 6f 23 48 40
       2.9769258 -3.9434505 1.989094 3.1271627
000330 da 43 b7 40 27 ba 50 40 4e ca fc 3f a9 17 08 40
       5.7270327 3.2613618 1.9749238 2.126444
000340 00 a1 f2 3f 51 14 85 c0 52 e1 51 40 81 04 e7 3f
       1.8955383 -4.15873 3.2793775 1.804825
000350 cd cb 31 40 9f 87 20 40 0e 28 ed 3f a7 e8 80 c0
       2.778064 2.5082777 1.8527849 -4.0284
000360 a5 79 09 40 fc e3 1a 40 0e 2e 0c 40 3b ae 56 40
       2.1480496 2.420165 2.190311 3.3543842
