trainingruns/1hiddenLR.01batch8/saved/saved_model.pkl (torch, 9136 bytes, 3 tensors)

input_to_hidden.weight f4 [220, 6]
00000000: 4536 febf 3d60 edbf f206 c8bf 409e 4fc0
00000010: 5997 0ac1 161f fabf 2cfd 2dbf 3068 fdbf
00000020: 171a bbc0 2d1b b1c0 29a0 8240 623b 24c1
00000030: 69d7 e0bf 76fb c8bf 21e6 d2bf fd4a 84c0
00000040: 333c e7c0 c2ad 00c0 bfc3 6bbf 6947 10c0
00000050: 2f7c 04c1 7452 53c0 c9bc f23e 0ac5 24c0
00000060: 957e c53f d84f 9f3f 788b 7e40 3328 54c1
00000070: 9a73 fcbe ce72 c0c0 2f58 9dbf d5b8 0ec0
00000080: 0fd3 a3bf ccbe 93c0 a469 b7c0 65c3 c4bf
00000090: 7091 eabf 4625 c6bf 6993 d7bf 956e 8dc0
000000a0: 4331 d4c0 8f56 03c0 6882 2ac0 6935 84bf
000000b0: 15d7 eebf 0bbc 74c0 4470 f7c0 f04e 14c0
000000c0: ef11 4cbf 615f 11c0 44fe f3c0 a720 91c0
000000d0: 1cfb bc3f 0dc6 b3c0 7aa7 15bf 037b 91c0
000000e0: 29f7 f4c0 0f67 debf 0034 0ebe ed6b 90bf
000000f0: d21a 55bf e5ee 42c0 35dd d9c0 cab1 69c0
00000100: 6b51 39be 59f3 f4bf 1759 93be 6636 c5c0
00000110: 4b9d cdc0 fdeb d1bf 0c8d 18bf 763f 29bf
00000120: 13aa 62bf 5e3d 3fc0 25ad cbc0 dafb 80c0
00000130: c3c5 a8be 729e fbbf 08bf 80bf d4f9 1240
00000140: e774 48c0 4318 0ac1 6185 d4c0 3c52 9cc0
00000150: acde 57bf abca 36c0 5f30 06c1 5689 07c0
00000160: 7888 323e f685 debf f458 e6be bc3f a6c0
00000170: fe32 e5c0 0011 f4bf 92e6 8bbe 6e05 77bf
00000180: 89f9 983e c15d 2cc1 7e80 51c0 241c 81bf
00000190: 2604 11bf bae2 973f 37cc d7be a230 aac0
000001a0: 1f9e d4c0 6173 03c0 6ed8 01bf 7938 6ebf
000001b0: 6856 35bf c72b 67c0 a3b2 f0c0 8305 26c0
000001c0: 4abc 6bbd 4a08 c4bf 7b30 ea3f 5217 24c0
000001d0: 5385 e2bf 663f f23f 7a43 c63f 74f6 ddc1
000001e0: 130c c9be 3a3c 57c1 0241 693f 8012 e5be
000001f0: 7690 383d 9515 9f3e 8341 6fbf 5749 f2bf
00000200: 0fdd c2c0 cd7b b7c0 b7aa 0940 7c95 fec0
00000210: f85b 71bf 90bb 27c0 de84 e1c0 429f 79c0
00000220: 9c65 4abd ee85 12c0 fb2e e0be cd4a a3bf
00000230: c3c3 17c1 2c3c 42c0 e1a6 1c40 9f2f e6c0
00000240: 7fd6 68bf 0a02 2fc0 38c8 e6c0 14ae 5dc0
00000250: e0d2 f6bd c8a1 05c0 facd 74bf ff57 35c0
00000260: 0785 bec0 c554 93c0 a119 c7be b649 06c0
00000270: 9fb0 c9bf 892c d2bf 8f01 e6bf 16bc 7ac0
00000280: db62 d0c0 2945 e2bf a0be 60bf 5747 3fc0
00000290: dc1c d5c0 7a22 64c0 cf6e aebe 658a efbf
000002a0: 93f0 c83e e590 8640 b2a4 2cc0 f923 33c1
000002b0: 59a2 7bc0 7e4c 99c0 0f5a dabf f1a1 bdbf
000002c0: 8298 d9bf e1d0 8bc0 7595 d6c0 b6f2 00c0
000002d0: a552 63bf d844 2bc0 391c e5c0 1af3 72c0
000002e0: 8129 2d3d 7744 10c0 323d 74be 52c8 5840
000002f0: 73fc 0b40 4136 693e 7dbb 45c1 2f0c 4cc1
00000300: 3960 78bf 51d3 33c0 cdb2 bbc0 6d3a 9bc0
00000310: 4586 b4be 27b7 0bc0 4f94 ecbf d546 d4bf
00000320: b0df bbbf 2409 90c0 b3dd ebc0 ea26 08c0
00000330: bda9 f3bf 67de c9bf 6905 c6bf e709 8ec0
00000340: 9446 f1c0 0373 0bc0 bb15 e7bf 2f4f f0bf
00000350: e256 b4bf f317 81c0 b580 fcc0 1e45 fdbf
00000360: a91c 123f b79e 2ec1 75b5 cabf 43eb babf
00000370: 4a85 bbbf dc9c e73f 6c2f 0ac0 6cb8 afbf
00000380: fc6d ddbf 2938 79c0 0354 f7c0 c189 0cc0
00000390: f928 67bf 7b93 45c1 9790 36be bc7f 16be
000003a0: 6702 1940 5f68 91bf 4ba6 e0c0 9245 a3c0
000003b0: 6915 8a40 ec1a 1a40 2612 993f 0620 70c1
000003c0: c65e ddbf 50cf 1ac0 c6d2 90c0 268e 9040
000003d0: 1e48 b7bf 0845 56c1 7e55 17c0 505d b8bf
000003e0: 4f9e 12c0 61b5 81bf be0d 1ec1 9724 0bc0
000003f0: 1c55 dd3f 63e3 a0bf 3b26 cbbf aaa2 d33e
-1.9860312 -1.8544995 -1.562712 -3.2440338 -8.66195 -1.9540737 -0.67964435 -1.979742
-5.846935 -5.5345674 4.082051 -10.264498 -1.7565738 -1.570174 -1.647648 -4.134154
-7.2260985 -2.0106053 -0.9209556 -2.2543585 -8.280318 -3.3019075 0.47409657 -2.5745263
1.5429255 1.2446241 3.9772625 -13.259814 -0.49306947 -6.0140142 -1.2292536 -2.2300313
-1.2798785 -4.6170406 -5.7316456 -1.537213 -1.8325634 -1.5480125 -1.6841861 -4.419749
-6.6310134 -2.052158 -2.6642094 -1.03288 -1.8659388 -3.8239772 -7.7324543 -2.317318
-0.79714864 -2.2714465 -7.6247883 -4.535236 1.4764132 -5.617926 -0.58458674 -4.546266
-7.655171 -1.7375201 -0.13887024 -1.1282936 -0.8324405 -3.045831 -6.808253 -3.6514764
-0.18097465 -1.9136764 -0.28778908 -6.1628904 -6.425451 -1.6400143 -0.5959022 -0.6611246
-0.8854076 -2.9881206 -6.364886 -4.0307436 -0.3296338 -1.9657729 -1.0058298 2.2964983
-3.1321352 -8.630923 -6.6412816 -4.8850384 -0.84324145 -2.8561199 -8.386809 -2.1177573
0.17434871 -1.7384632 -0.4498974 -5.19528 -7.1624746 -1.9067688 -0.2732435 -0.9649266
0.2987788 -10.772889 -3.2734675 -1.0086713 -0.56646955 1.1866066 -0.4214799 -5.3184366
-6.644302 -2.0539172 -0.5072087 -0.9305492 -0.7083497 -3.612047 -7.5218062 -2.5940864
-0.057552613 -1.531503 1.8296045 -2.5639234 -1.7696937 1.8925598 1.5489342 -27.745338
-0.39267024 -13.452204 0.9111482 -0.44740677 0.045059644 0.31071153 -0.9345934 -1.8928632
-6.0894847 -5.7338624 2.1510446 -7.9557476 -0.9428096 -2.620823 -7.047469 -3.9003453
-0.04941331 -2.2894244 -0.43785843 -1.2757202 -9.485293 -3.0349226 2.4476855 -7.193313
-0.90952295 -2.7344995 -7.211941 -3.46375 -0.1205194 -2.0879993 -0.95626795 -2.8334959
-5.9537387 -4.604098 -0.3888674 -2.098249 -1.5757025 -1.6419841 -1.7969226 -3.9177299
-6.5120673 -1.7677356 -0.8779087 -2.9887292 -6.659773 -3.5646043 -0.34068915 -1.871411
0.39246044 4.2051873 -2.6975522 -11.196282 -3.931784 -4.7905874 -1.7058734 -1.4815046
-1.6999667 -4.369248 -6.7057443 -2.014814 -0.8879798 -2.676077 -7.159695 -3.7960877
0.04227591 -2.2541788 -0.23851469 3.3872266 2.1872833 0.22774602 -12.3582735 -12.7529745
-0.97021824 -2.8097727 -5.8655763 -4.850882 -0.3525869 -2.1830537 -1.848276 -1.6584116
-1.4677639 -4.501116 -7.370813 -2.1273751 -1.9036175 -1.5770997 -1.5470401 -4.438709
-7.5398655 -2.1788948 -1.8053507 -1.8774165 -1.4089015 -4.0341735 -7.8907113 -1.9786718
0.5707498 -10.913749 -1.5836626 -1.4603046 -1.4650052 1.8094745 -2.1591444 -1.3728156
-1.729919 -3.8940527 -7.7290053 -2.1959078 -0.90296894 -12.348506 -0.17828594 -0.14697164
2.3907716 -1.1359977 -7.0202994 -5.1022425 4.3151135 2.4078932 1.1958663 -15.007818
-1.7294548 -2.4189034 -4.525729 4.517352 -1.4318883 -13.391853 -2.364593 -1.4403477
-2.2909124 -1.0133477 -9.878355 -2.1741083 1.7291598 -1.2569393 -1.5871042 0.4133504

input_to_hidden.bias f4 [220]
00000000: b4e4 18c0 52e5 6240 0979 66c0 8074 4a40
00000010: e36f 0740 f14e 55c0 d84a 53c0 8b89 60c0
00000020: 7d47 0940 eaa9 9dbe c55f 4e3f d3c2 babf
00000030: cd1f 1abe 13f1 66bf b955 bc3f 690e 7bbe
00000040: ce7d 9e3f 011b 53bf 2d32 bb3e e9aa 1840
00000050: 2dce f8bd b0cb 203d 6e82 39c0 ee99 4640
00000060: 0a29 39c0 f5bd 8b3f bef1 66c0 95a9 fc3e
00000070: e82b 82bf 344a 7ec0 f33a dc3e 487a 31be
00000080: 7ab5 a13e dae2 59c0 3382 42c0 39e5 39c0
00000090: 4552 c23f 4cdd 68c0 167c 1c40 3606 5e40
000000a0: c0e5 67bf d97b 27c0 5110 d43f cfee eabe
000000b0: 562b 0640 fb7a 3dc0 8932 ccbd 1c71 713f
000000c0: 3de9 5bc0 bce3 ec3e 8000 71c0 184b 2cbf
000000d0: 3595 2640 8315 903e e197 923f b996 0b40
000000e0: aa62 33c0 0604 c43e 4f3f 233f b346 8bc0
000000f0: 7539 7d3e 9bf9 9a3f d6e2 2cc0 197e 56c0
00000100: bb1b efbe 6a27 1fbf af50 57c0 776f 8ebf
00000110: eee7 6b3d 151f 46c0 8b8d 27be 8666 60c0
00000120: 1e3e 93be 1f87 3b40 a8e2 b43f 9ede 3240
00000130: b25d 4840 bfd4 4abf c9ea 863f e01a 8840
00000140: 03ee 8f3f 0978 98bd c8ae 5ebe 2584 c33f
00000150: 9a60 90bf 8b1f d33f ede8 43be 7cfc 1f40
00000160: 48c8 1040 589e 90bf c87c fa3e 52d3 b4c0
00000170: 091d a1c0 c5f2 fc3f 0eaa 67c0 59e2 b03f
00000180: 99b3 bf3f 12f7 43bf 8cd7 8f3f 6c4f 2a40
00000190: 1bb2 e23e b6d1 1c3e 63ef c93f fb96 1ebe
000001a0: 249a 5640 7240 4b3d 0ab5 f73f 11b7 fdbf
000001b0: c3d6 9bbf 89ca 03c0 a1b9 4d40 f7be 413f
000001c0: 0571 1e40 8141 a33f 691e 1340 f76f 9b3f
000001d0: 69c8 39c0 f2e6 7fbe 540b e2bf c602 403e
000001e0: 00aa 41c0 4b4f 443e a567 cbbf 81b5 0b40
000001f0: 0cc6 0540 e580 1640 3768 063f cf07 4dbe
00000200: f232 a1be 3016 04c0 1905 2e40 74c5 d4bf
00000210: 00e5 fabe 2f88 6bbf f7f9 9d3f ce5f ef3f
00000220: 08f4 0ec0 8d03 d93f a182 d53f 1671 4b3f
00000230: 33be 3bbf 3007 18c0 d60b 313e 4bb4 0640
00000240: b8ad a73f 90ff 4fc0 177d 3c3f 6bfc 6fbf
00000250: 036c 473f 3b66 f53e d95e 88bf f31c 91bf
00000260: 26f6 b8bf 6c58 dc3f efd8 1940 b752 643f
00000270: d3ba 85bf 7fce 443e 8e52 0f40 4ac0 a1c0
00000280: 113b 60c0 6495 c03f 103b 37c0 73b2 acc0
00000290: 0804 be3e dfbb d43f 64d8 1d40 1ce8 c03f
000002a0: b6b4 bb3f 7370 0cc0 957c c6be 7524 53be
000002b0: 7e74 6cc0 33dc cbc0 69eb 673e d21e 5c40
000002c0: beeb 4640 9079 56c0 d626 3f40 a6d0 6cc0
000002d0: bec9 19bf 92e3 73bf caa4 fcbe eeaf df3e
000002e0: 3c66 2fc0 1a7f 22c0 8cf1 2cc0 3dde 7fc0
000002f0: f31f 0bbf 2fb9 57c0 946c f93f 3ae6 553f
00000300: 83ff 90bf 06db adc0 e834 a9bf d2fb 7fc0
00000310: b269 42c0 b1e1 65bf 0bb1 76c0 d89a 61c0
00000320: 82c3 2f40 ce3e bc3c a0ee 05c0 9478 2540
00000330: 12c4 eebf 3b67 71c0 4234 17c0 46f1 7ec0
00000340: e8c2 4440 2aaa 12c0 c97b 0bc0 1f80 98bf
00000350: f06c c33e b0aa 6bc0 21ab ccc0 e3a0 61bf
00000360: 1f46 86be ce45 fbbf 5fb9 b0be 7803 79c0
-2.388959 3.5452466 -3.6011374 3.1633606 2.116204 -3.3329432 -3.301443 -3.508395
2.1449883 -0.30793697 0.8061488 -1.4590706 -0.15051194 -0.902116 1.471366 -0.24517216
1.2382143 -0.8246308 0.3656172 2.3854315 -0.121487 0.03925675 -2.8985858 3.1031451
-2.8931298 1.0917345 -3.6085048 0.4934813 -1.0169649 -3.973279 0.43013725 -0.17331803
0.31583768 -3.404471 -3.0391967 -2.9046156 1.5181357 -3.638507 2.4450736 3.469129
-0.90584946 -2.616934 1.6567479 -0.45885321 2.096395 -2.9606311 -0.09970576 0.94313216
-3.4361107 0.46267498 -3.7656555 -0.67302084 2.6028569 0.28141412 1.14526 2.1810744
-2.802897 0.3828432 0.63768476 -4.3523803 0.2472895 1.2107424 -2.701345 -3.3514464
-0.46700844 -0.62169516 -3.3642995 -1.1127766 0.057594232 -3.095647 -0.16362588 -3.5062575
-0.2875833 2.9301221 1.413167 2.7948375 3.1307187 -0.79230875 1.0540401 4.2532806
1.124451 -0.0744477 -0.21746361 1.5274702 -1.127948 1.6494001 -0.19131823 2.4997854
2.2622242 -1.1298323 0.48923326 -5.650796 -5.0347943 1.9761587 -3.6197543 1.3819076
1.4976684 -0.76548874 1.1237655 2.6610975 0.4427651 0.15314373 1.577618 -0.15487282
3.353158 0.049622007 1.9352124 -1.9821492 -1.2174915 -2.0592368 3.214455 0.75682014
2.4756482 1.2754365 2.298731 1.2143544 -2.902857 -0.24990442 -1.7659707 0.18751058
-3.026001 0.19170873 -1.5891005 2.1829531 2.0902128 2.351617 0.5250277 -0.2002251
-0.3148418 -2.0638542 2.7190611 -1.6622758 -0.49002838 -0.92004675 1.2341908 1.8701112
-2.2336445 1.6954209 1.668049 0.7946943 -0.73337096 -2.3754387 0.17289671 2.1047542
1.309989 -3.2499733 0.7362837 -0.93744534 0.7789919 0.47929558 -1.0653945 -1.133696
-1.4450119 1.7214484 2.4038656 0.8918871 -1.0447639 0.19219397 2.2394137 -5.054723
-3.5036051 1.504559 -2.86298 -5.3967834 0.3711245 1.6619834 2.4663324 1.5070834
1.4664524 -2.1943634 -0.38766924 -0.20619376 -3.69461 -6.37063 0.22648396 3.4393811
3.1081386 -3.3511696 2.9867454 -3.700235 -0.6007346 -0.9526912 -0.49344474 0.4368891
-2.740615 -2.5390077 -2.7022429 -3.9979393 -0.54345626 -3.3706777 1.948626 0.8355442
-1.1327976 -5.4329863 -1.3219271 -3.999745 -3.0377011 -0.897975 -3.8545558 -3.525076
2.7463078 0.022979166 -2.0926895 2.5854845 -1.8653586 -3.7719257 -2.3625646 -3.9834762
3.0743961 -2.291636 -2.1794302 -1.19141 0.3816905 -3.682293 -6.3958898 -0.8813612
-0.26225373 -1.9630678 -0.34516427 -3.8908367

hidden_to_output.weight f4 [1, 220]
00000000: f790 8440 9482 fa40 f0c2 5340 c785 b840
00000010: 4085 3c40 946d 4d40 1fa0 4640 2b8a 6840
00000020: 5a99 b340 89ab 6840 8d63 8e40 fd4b 3940
00000030: 8a98 8640 4663 8840 9523 9440 0221 5c40
00000040: bc8f 8c40 6459 4b40 c136 8840 e529 dac0
00000050: bb88 6b40 af2e 9440 eb64 6b40 a69d f540
00000060: 55ed 6740 e43b 8a40 61e9 4840 3478 8440
00000070: b6ed 9c40 804a 4b40 80e2 9640 b272 cb40
00000080: 91f7 8640 e3ad 5e40 8ec1 6140 4094 6b40
00000090: 7227 af40 212e 6440 bbd3 b240 5a57 ecc0
000000a0: 20a9 9bc0 7c66 8240 8377 d8c0 336b 4740
000000b0: c65d 9c40 8c81 6440 585e 7940 eb27 9540
000000c0: 2a62 7840 7bad 9540 b62c 5640 9be4 4b40
000000d0: 1cc6 b840 2611 7940 a62e 9540 2a28 a340
000000e0: 1877 7940 add0 8540 f998 7640 02d4 1d40
000000f0: d8df 6540 6cc5 8740 11d3 8540 65b5 5840
00000100: 2727 6540 27c2 8540 dceb 7440 56ce acc0
00000110: ae46 7940 35de 5040 6e13 5440 47d4 6840
00000120: 679b 4a40 b624 ce40 5c45 9c40 131e c640
00000130: 1fce d240 e896 7e40 f661 9140 c00b 5f40
00000140: 0f88 7340 fbbe 9340 d296 8c40 99ae a440
00000150: 92a0 8940 8b78 9c40 6973 7d40 9ef0 8040
00000160: e9af a340 e427 dec0 bc7e 8740 af5e a5bf
00000170: 8faf dac0 117d a040 a34c 6040 50c6 a040
00000180: aea4 ab40 d47b d8c0 5500 8f40 7e2b b440
00000190: e00d 8e40 bce7 5940 3e7d a440 b379 8740
000001a0: 237f c8c0 b6ee 7340 3743 bc40 d2ed 8f40
000001b0: b748 dac0 c2d1 9540 f56e cec0 7362 9640
000001c0: be9b c240 2ee8 7e40 32ab b040 ef54 8b40
000001d0: 622a 6d40 c85c 5040 5671 4e40 aac0 8840
000001e0: 9ffe 7640 fa9b 8640 9ef0 2f40 9be9 9f40
000001f0: 6cc9 a740 dede b240 4207 7140 a1d1 6f40
00000200: 29a4 5240 b0c7 5c40 93cc b340 0932 4b40
00000210: 46c0 8a40 60a0 8840 06d5 9540 924c 9c40
00000220: 28b9 8b40 8310 a140 a891 9f40 c0c4 7640
00000230: 42fe d0c0 8655 8740 faa2 7840 d769 9e40
00000240: e02e ab40 c655 6d40 a3e0 7240 3609 e640
00000250: 5ee8 0841 f4d4 88c0 be36 5340 9c05 8a40
00000260: ad60 6740 e6f4 b940 6e2a a540 b54c 8d40
00000270: e8d8 c040 5a90 8040 77c1 4e40 284d febe
00000280: 1e88 5d40 7456 9840 3ea6 6d40 9c34 0dc0
00000290: 0680 9840 25ea 9d40 0aa9 b140 e391 9640
000002a0: 398c 8f40 a131 8e40 b552 7540 b1af 7040
000002b0: 45be 5b40 27cb 8dbf fcb1 7a40 ddf4 d640
000002c0: 2a07 cd40 1ce0 6940 4c0d e640 e08e 5240
000002d0: 7223 8940 6372 bac0 e18c d2c0 841a 8140
000002e0: 827f 6d40 743f 7640 1fbc 7840 8fc6 4c40
000002f0: 51de 6840 12c7 0640 67f1 9f40 771a 8d40
00000300: 01aa bcc0 17a5 a8bf b21b 8740 04ad 4740
00000310: 4bb7 7440 f51a cb40 7797 6f40 1752 5340
00000320: f2ab c140 ff3f 9640 8e1a 1940 a91d bf40
00000330: 8d21 4540 8bc6 2840 3d2e 5640 bf12 4840
00000340: c536 cf40 10be 3540 b8fc 6c40 a35a c3c0
00000350: 6f42 8c40 94d4 5440 9b24 dabf e086 c2c0
00000360: 5b19 8040 ae91 7e40 81b3 6f40 30ec 5940
4.142696 7.8284397 3.308773 5.7663302 2.945633 3.209813 3.103523 3.633433
5.6124697 3.6354697 4.449652 2.895263 4.2061205 4.2621183 4.6293435 3.4395146
4.3925457 3.177331 4.256684 -6.817614 3.6802204 4.6306987 3.6780345 7.675494
3.6238606 4.319811 3.1392443 4.139673 4.9040174 3.176422 4.715149 6.357751
4.2177205 3.4793632 3.5274386 3.6809235 5.473565 3.5653155 5.588346 -7.385663
-4.864395 4.0750103 -6.764589 3.115918 4.886447 3.570407 3.8963833 4.661123
3.8809915 4.677427 3.346479 3.185828 5.7741833 3.8916717 4.6619444 5.098653
3.897894 4.181723 3.8530867 2.466065 3.5917873 4.2428493 4.182015 3.3860714
3.5805147 4.17995 3.8268957 -5.4001875 3.894939 3.2635624 3.313686 3.6379564
3.165735 6.4419813 4.8834667 6.191171 6.5876613 3.9779606 4.543208 3.4850922
3.8051794 4.617063 4.3934107 5.146313 4.300851 4.8897147 3.960169 4.029372
5.1152234 -6.9423695 4.2342205 -1.291952 -6.8339305 5.015267 3.5046775 5.024208
5.3638525 -6.7651157 4.4687905 5.630309 4.4391937 3.404769 5.1402884 4.233606
-6.2655196 3.8114448 5.883205 4.497781 -6.8213763 4.681855 -6.4510446 4.6995177
6.0815115 3.9829211 5.520898 4.354118 3.7057118 3.255663 3.2256675 4.2735186
3.8592908 4.20654 2.749061 4.9972663 5.2433376 5.5897055 3.766068 3.7471697
3.2912695 3.449688 5.6187224 3.174929 4.335971 4.269577 4.682254 4.884347
4.366352 5.0332656 4.9865303 3.8557587 -6.5310373 4.22919 3.8849473 4.95042
5.349472 3.7083602 3.7949607 7.1886244 8.55673 -4.2759953 3.3002162 4.3131847
3.6152756 5.811145 5.1614294 4.4156137 6.026478 4.017621 3.2305582 -0.4966824
3.461433 4.7605534 3.7132716 -2.206336 4.765628 4.934832 5.5518847 4.7053084
4.485867 4.443558 3.833173 3.7607234 3.4334881 -1.1077622 3.9171133 6.7173905
6.4071245 3.6543036 7.189123 3.2899704 4.285577 -5.826463 -6.579697 4.034487
3.7109075 3.8476229 3.886482 3.199619 3.638569 2.1059003 4.998218 4.4094806
-5.8957524 -1.3175381 4.222131 3.119935 3.8236873 6.3470407 3.7436197 3.3018854
6.0522394 4.695312 2.3922458 5.9723706 3.0801728 2.637118 3.3465722 3.1261442
6.4754357 2.8397255 3.7029247 -6.104814 4.3831096 3.3254747 -1.7042421 -6.078964
4.003095 3.9776416 3.745331 3.4050407
