assignment_part3/final.pth (torch, 9088 bytes, 3 tensors)

input_to_hidden.weight f4 [220, 6]
0	0xbee67d67	-0.4501755
1	0xbf58f446	-0.8474773
2	0xbf08b811	-0.53405863
3	0xbf0faf6c	-0.5612705
4	0xbc9446d2	-0.018100176
5	0x3f05f9a4	0.52334046
6	0xbe80467c	-0.25053775
7	0x3e75e2f6	0.2401236
8	0x3f0cf460	0.55060387
9	0x3f5fc17d	0.87404615
10	0x3d059a1a	0.032617666
11	0x3e67854a	0.2260944
12	0xbe2e4cef	-0.17021535
13	0x3f266d0c	0.6501014
14	0x3ebfa3c0	0.3742962
15	0x3f334488	0.70026445
16	0x3e1f32a8	0.15546668
17	0x3ddf4e7d	0.10903642
18	0xbe11502e	-0.14190742
19	0xbe171b8b	-0.147566
20	0x3f306b7e	0.6891402
21	0x3f81cf80	1.0141449
22	0x3f19b303	0.60038775
23	0x3e13d10a	0.14435211
24	0xbe22aee6	-0.15887031
25	0xbe957766	-0.29192656
26	0xbf10f5d6	-0.56625116
27	0xbeb617a3	-0.35564908
28	0xbdffae52	-0.12484421
29	0xbe22478d	-0.15847607
30	0xbef3eddf	-0.4764242
31	0xbe94e20f	-0.2907872
32	0x3e77a6ec	0.2418477
33	0x3fc0416f	1.5019969
34	0x3f25bda4	0.64742494
35	0x3f51f3fe	0.8201293
36	0xbe9a010e	-0.3007893
37	0xbdb0d3e5	-0.08634166
38	0xbe7aed37	-0.24504553
39	0xbf053008	-0.52026415
40	0xbf713bbd	-0.9423178
41	0xbec1f950	-0.37885523
42	0x3f0218af	0.50818914
43	0x3faa3a68	1.3299074
44	0x3f2391b8	0.63894224
45	0xbebe1182	-0.37122732
46	0xbe1d8d26	-0.15385875
47	0xbf0c1a94	-0.54728055
48	0xbe60af11	-0.21941783
49	0x3f148dfd	0.58029157
50	0x3e52a5e2	0.20571092
51	0x3f1354aa	0.5755106
52	0x3e094f2a	0.13409105
53	0x3e6b7f1e	0.2299771
54	0xbe0b00fe	-0.13574597
55	0x3e2c884b	0.16848867
56	0xbe460006	-0.19335946
57	0xbf87283a	-1.0559151
58	0xbf385da4	-0.72017884
59	0xbf15564a	-0.5833479
60	0xbf82dc4c	-1.0223479
61	0xbfcc49f8	-1.5960073
62	0xbf7035e1	-0.9383221
63	0x3d79d18d	0.06099086
64	0x3f022634	0.50839543
65	0x3f29faec	0.663985
66	0xbe001ae7	-0.12510262
67	0x3f806ad9	1.0032607
68	0x3f5f6859	0.87268597
69	0x3dbb72d1	0.09152759
70	0xbd857c52	-0.06517853
71	0x3d78849c	0.06067334
72	0xbf803474	-1.0016007
73	0xbfd8d47b	-1.6939844
74	0xbf633591	-0.8875361
75	0xbd549706	-0.05190184
76	0x3f202ad5	0.62565356
77	0x3f68e4d2	0.9097415
78	0xbe67976b	-0.22616355
79	0xbfa283e5	-1.2696501
80	0xbf61b8af	-0.8817243
81	0xbe619a83	-0.22031598
82	0x3dc7214c	0.09723148
83	0x3e8ce78f	0.27520415
84	0xbf497eb3	-0.7870895
85	0xbfa99714	-1.324923
86	0xbf06999d	-0.52578145
87	0xbeddfc1d	-0.4335641
88	0x3ec8dc89	0.39230755
89	0x3eda0dcf	0.4258866
90	0xbe25218d	-0.1612608
91	0xbf68b0d9	-0.9089485
92	0xbe9321ac	-0.28736627
93	0xbea0e1f9	-0.31422403
94	0xbe803f08	-0.2504809
95	0xbc25ef25	-0.010127817
96	0xbf24a977	-0.6432108
97	0xbf74c1af	-0.9560804
98	0xbf1e82ae	-0.6191815
99	0xbc5b74d0	-0.0133945495
100	0xbed452cf	-0.41469428
101	0x3e065fd2	0.1312249
102	0xbd9228d4	-0.071366936
103	0xbd82fcfc	-0.06395909
104	0x3ec07f05	0.37596908
105	0x3f241502	0.64094555
106	0x3f39a81d	0.72522146
107	0x3e68fd98	0.22752988
108	0xbcbc46a0	-0.022982895
109	0x3ed1ee0a	0.41001922
110	0x3f496b56	0.78679407
111	0x3f1a380a	0.6024176
112	0xbe616468	-0.22010958
113	0xbca89e19	-0.0205832
114	0xbe18f072	-0.14935473
115	0x3f0dc57b	0.55379456
116	0x3e814ef9	0.25255564
117	0x3f2d7dfb	0.67770356
118	0x3f19d4c8	0.60090303
119	0x3e539208	0.20661175
120	0xbf0cb0d1	-0.549573
121	0xbf82137d	-1.0162197
122	0xbe10ba4b	-0.14133565
123	0xbdee9365	-0.11649207
124	0xbe831c45	-0.25607505
125	0x3eab1513	0.33414516
126	0xbe1f8c8a	-0.15580955
127	0x3f2cf168	0.67555857
128	0x3ed5d7d0	0.41766214
129	0x3f52b6bd	0.82310086
130	0x3e4ae32c	0.19813222
131	0x3c279602	0.010228636
132	0xbe5f8674	-0.21828634
133	0x3eebd6bf	0.46062276
134	0x3e37c493	0.17946081
135	0x3e93f4a8	0.28897595
136	0x3eed6231	0.46363977
137	0x3da715a2	0.08158423
138	0xbe9650cc	-0.29358518
139	0xbdcbfaa6	-0.09959917
140	0xba5546e0	-0.00081358664
141	0xbf4b1917	-0.7933516
142	0xbf55b7e4	-0.8348372
143	0xbf1150c2	-0.5676385
144	0x3e5ff6ad	0.21871443
145	0x3e9ed97a	0.31025296
146	0x3e2c7e1f	0.16844986
147	0x3f16bc06	0.5888065
148	0x3e82de7d	0.2556037
149	0xbdc805a8	-0.09766704
150	0xbe8af861	-0.27142623
151	0xbf8e8b58	-1.1136274
152	0xbe180844	-0.14846903
153	0xbe140a77	-0.14457117
154	0xbee53173	-0.4476429
155	0x3e7b28a7	0.24527226
156	0x3ea347c1	0.3189068
157	0x3e81bf90	0.25341463
158	0x3f34847e	0.7051467
159	0x3f5e6326	0.8687004
160	0xbde2c8e7	-0.11073475
161	0xbea4ce4c	-0.32188642
162	0x3f380a1c	0.71890426
163	0x3f7f918a	0.9983145
164	0xbdaa3827	-0.083114915
165	0x3e81eda5	0.2537662
166	0xbe24c93d	-0.16092391
167	0xbe1d5e99	-0.15368117
168	0xbe63adf1	-0.22234322
169	0xbf1b6abc	-0.6070974
170	0xbea7eabf	-0.32796285
171	0xbe4f6a96	-0.20255503
172	0xbe9d0bb7	-0.30673
173	0xbe98553a	-0.29752523
174	0x3ecacec3	0.39610872
175	0x3ed8f0bf	0.42371175
176	0x3ea13261	0.3148375
177	0x3f2c09fa	0.67202723
178	0xbe83eb18	-0.257653
179	0x3d540edf	0.051771995
180	0x3ea4480a	0.3208621
181	0xbe41957b	-0.18904679
182	0xbd5cee03	-0.053937923
183	0xbfd78f87	-1.6840676
184	0xbf5a8277	-0.85355324
185	0xbefcd510	-0.49381304
186	0x3ec9ec04	0.39437878
187	0x3dc222f7	0.09479325
188	0xbe7114f7	-0.23543154
189	0x3ec97109	0.3934405
190	0x3ec29364	0.38003075
191	0x3e9ff024	0.312379
192	0x3ebc8b09	0.36824825
193	0x3f0b5764	0.5443022
194	0x3f068e7a	0.5256115
195	0x3ec892fe	0.39174646
196	0x3dd22fea	0.10263045
197	0xbe50c2b2	-0.2038677
198	0x3ec898bf	0.39179036
199	0x3f3d4032	0.7392608
200	0x3ecacb8d	0.39608422
201	0x3e364905	0.17801292
202	0x3c935a68	0.017987445
203	0xbe747790	-0.23873734
204	0x3d14594c	0.036217973
205	0x3f6974a1	0.91193587
206	0x3ed89671	0.42302278
207	0x3eb13080	0.34607315
208	0xbda786e6	-0.08180027
209	0xbea4f51d	-0.32218257
210	0xbd24ecda	-0.04026494
211	0x3cb04c3c	0.021520726
212	0x3e584482	0.21119884
213	0x3ece6e3b	0.40318474
214	0x3f29dae7	0.66349643
215	0x3eaa57a0	0.33269978
216	0xbd01f633	-0.031728934
217	0xbf628d4b	-0.88496846
218	0xbf447f30	-0.7675657
219	0xbea333da	-0.31875497
220	0xbea736b1	-0.32658914
221	0x3e26a61b	0.16274302
222	0xbead1663	-0.33806142
223	0xbf031880	-0.5120926
224	0xbf437142	-0.7634469
225	0xbefcdf48	-0.493891
226	0x3de0bbcd	0.1097332
227	0xbdfad719	-0.12248058
228	0xbef0191e	-0.46894163
229	0xbe9db0f4	-0.30799067
230	0xbf366c4f	-0.71259016
231	0xbee67077	-0.4500768
232	0xbef56ccc	-0.47934568
233	0x3db9b1af	0.090670936
234	0x3f54d343	0.8313486
235	0x3f870099	1.0547057
236	0x3f5e1b3a	0.86760294
237	0xba7f12f0	-0.00097303
238	0xbebddb15	-0.3708121
239	0xbeb2f4f1	-0.349525
240	0xbf16db6e	-0.58928573
241	0xbe07105c	-0.13189834
242	0x3d82e436	0.06391184
243	0x3fb01d87	1.3759011
244	0x3f37843b	0.7168614
245	0x3f6ce6ce	0.9253968
246	0x3e054a71	0.13016678
247	0xbef0f029	-0.47058228
248	0xbf45c7be	-0.7725791
249	0xbf38a9e6	-0.72134244
250	0xbebca688	-0.36845803
251	0xbec91e61	-0.3928099
252	0xbf143539	-0.5789371
253	0xbf6f76ad	-0.9354046
254	0xbf24db04	-0.6439669
255	0xbe80a9c8	-0.25129533

input_to_hidden.bias f4 [220]
0	0x3e97bd15	0.29636446
1	0xbc86f7de	-0.016475614
2	0xbf0164d3	-0.5054447
3	0xbe8c1f8e	-0.27367824
4	0x3e144b12	0.14481762
5	0x3c061166	0.008182859
6	0x3e743d66	0.23851547
7	0x3df03d59	0.11730451
8	0xbec88c2a	-0.39169437
9	0x3d19d6f9	0.03755853
10	0x3ea3e494	0.3201033
11	0xbeedc6a2	-0.46440607
12	0x3e3e27bc	0.18569845
13	0x3ee2513e	0.44202608
14	0x3ed88242	0.4228688
15	0x3dd17598	0.10227507
16	0x3f249376	0.6428751
17	0xbbef0da4	-0.0072953273
18	0xbe9001cd	-0.28126374
19	0xbf1a6ed3	-0.60325354
20	0xbd34d3d0	-0.044147313
21	0xbf393ceb	-0.7235858
22	0x3d776546	0.060399316
23	0x3e56dfc7	0.20983802
24	0xbe7af2ac	-0.24506634
25	0x3e0109e2	0.12601426
26	0xbf16f527	-0.5896782
27	0xbe385672	-0.18001726
28	0x3daa72a3	0.083226465
29	0xbf08ab27	-0.5338616
30	0x3e62fe0c	0.22167224
31	0xbdd6592e	-0.104662284
32	0xbf0d2ef9	-0.551498
33	0xbecfa1f2	-0.40553242
34	0xbd99f194	-0.075167805
35	0xbdc56012	-0.096374646
36	0x3ebdd5e6	0.37077254
37	0x3e9b452b	0.30326208
38	0x3ede0ed1	0.4337068
39	0xbef15b03	-0.4713975
40	0x3d87e758	0.06635922
41	0x3f08e73e	0.5347785
42	0x3e802466	0.2502777
43	0xbc727435	-0.014798214
44	0xbf135e79	-0.5756603
45	0x3ebccd42	0.3687535
46	0xbf12fbf4	-0.574157
47	0xbe2ce82e	-0.16885445
48	0xbf1b8d5c	-0.6076257
49	0xbdd817d2	-0.10551418
50	0x3ef7e636	0.48417825
51	0xbdb5a530	-0.08869398
52	0xbf41c809	-0.75695854
53	0x3f119f72	0.5688392
54	0xbeef566d	-0.46745625
55	0xbec8b4b1	-0.39200357
56	0x3da38de5	0.079860486
57	0x3f10f4df	0.56623644
58	0xbea2257b	-0.3166922
59	0x3e102c19	0.14079322
60	0x3d04a7ac	0.032386467
61	0xbe23e667	-0.1600586
62	0xbea61ca6	-0.32443732
63	0xbe82c7f8	-0.2554319
64	0x3e8ff60a	0.281174
65	0xbe2cfa92	-0.1689246
66	0xbf3786cc	-0.7169006
67	0x3ee76505	0.4519426
68	0xbecd866e	-0.40141624
69	0x3da61220	0.08108926
70	0x3e9c7a1c	0.30561912
71	0xbf101868	-0.5628724
72	0xbe12ec19	-0.14347877
73	0xbf822080	-1.0166168
74	0xbf6150d0	-0.88013935
75	0xbe7767d0	-0.24160695
76	0x3ccc802e	0.024963465
77	0xbe3fa223	-0.18714194
78	0xbef841f0	-0.48487806
79	0x3e63e88c	0.22256678
80	0x3f26ce00	0.6515808
81	0xbec9f9fb	-0.39448532
82	0xb9f11472	-0.00045982335
83	0x3e57ae23	0.21062522
84	0x3f6a3d2b	0.91499585
85	0xbe30a450	-0.1725018
86	0xbdbdfe7c	-0.09277055
87	0xbf2aa8a4	-0.66663575
88	0x3eda4bbe	0.42635912
89	0x3e203c7d	0.15648074
90	0x3ee18c2f	0.44052264
91	0x3e1d2507	0.15346156
92	0xbd2c3c95	-0.042049963
93	0xbdf0fe18	-0.117672145
94	0xbdd66532	-0.1046852
95	0xbeee7452	-0.4657312
96	0xbe4e803d	-0.20166107
97	0xbe85384f	-0.26019523
98	0x3eb9441b	0.36184773
99	0x3e727b28	0.23679793
100	0x3f410a84	0.7540667
101	0x3e7e3c4f	0.24827693
102	0x3e1cc696	0.1531013
103	0xbd6d825c	-0.05798565
104	0x3e73928d	0.23786373
105	0x3ecaeb7c	0.39632785
106	0xbf5b1678	-0.8558116
107	0xbef772ae	-0.4832968
108	0x3e6ba237	0.23011099
109	0xbf104069	-0.5634828
110	0xbe2204a7	-0.15822087
111	0xbedd2da5	-0.43198887
112	0xbebafc80	-0.36520767
113	0xbea4b4c5	-0.32169166
114	0xbf66cae6	-0.9015335
115	0x3e70520a	0.23468795
116	0xbc88166b	-0.016612252
117	0x3ea9f16d	0.33192006
118	0xbe0b7385	-0.13618286
119	0x3e86eb0e	0.26351207
120	0x3e11ff36	0.14257511
121	0xbea177ac	-0.31536615
122	0x3d2db0b6	0.042404853
123	0x3e8769f3	0.2644802
124	0xbee7514d	-0.45179215
125	0xbd8b0980	-0.06788921
126	0xbe9005a2	-0.28129297
127	0x3e6ad43d	0.22932525
128	0xbf3823fc	-0.7192991
129	0x3d029695	0.031881887
130	0xbec2b4ce	-0.38028568
131	0xbead0b06	-0.33797473
132	0xbedd0273	-0.4316593
133	0x3e6e5a09	0.23276533
134	0x3d2bef56	0.041976295
135	0xbeef0752	-0.46685272
136	0x3f45e9bb	0.7730977
137	0xbebbe401	-0.3669739
138	0xbeed31c9	-0.46327046
139	0x3e21ea2d	0.15811987
140	0xbed606f9	-0.41802195
141	0xbea35518	-0.3190086
142	0xbecd5302	-0.40102392
143	0xbe4b2449	-0.1983806
144	0xbe6539fb	-0.22385399
145	0xbef0cfc8	-0.47033525
146	0xbe80c4b1	-0.25150064
147	0x3e27115d	0.16315217
148	0x3ea7166f	0.32634303
149	0x3ebef8be	0.3729915
150	0xbf0f4599	-0.5596557
151	0xbe5e1afd	-0.21689983
152	0xbec4ed5f	-0.3846235
153	0x3e0b2d03	0.1359139
154	0x3d93409c	0.07190058
155	0xbe83be37	-0.2573106
156	0xbea44c80	-0.32089615
157	0xbf277e62	-0.6542722
158	0xbe38b00c	-0.18035907
159	0x3f0679ae	0.5252942
160	0xbe8ddefe	-0.27709192
161	0x3d1d1342	0.038348444
162	0x3e540208	0.207039
163	0x3e5f129c	0.21784443
164	0xbf2d75db	-0.6775796
165	0x3f2821a4	0.6567633
166	0xbee5caed	-0.44881383
167	0x3c3cc7ef	0.011522277
168	0x3d9f3770	0.07774246
169	0xbea93a9d	-0.3305253
170	0xbf1944ad	-0.59870416
171	0xbdd6ef72	-0.10494889
172	0x3dd2ea0f	0.102985494
173	0x3ef2e940	0.4744358
174	0x3e873094	0.2640425
175	0x3f2fa4ff	0.6861114
176	0x3d3d1eae	0.046171837
177	0x3e06352c	0.13106221
178	0x3cbf361f	0.023341237
179	0x3e3c3ddb	0.18382971
180	0xbd75ceea	-0.06001178
181	0x3eb2ea30	0.34944296
182	0xbe2aba18	-0.16672552
183	0xbf2015bb	-0.6253316
184	0x3ecbbbef	0.3979182
185	0xbe5f246f	-0.21791242
186	0xbf1251ab	-0.57155865
187	0x3e7d85a1	0.24758007
188	0x3ec8a8b4	0.3919121
189	0x3e257728	0.16158736
190	0xbbf8c0bb	-0.0075913346
191	0xbd40d0a0	-0.04707396
192	0x3e00b580	0.12569237
193	0xbdd105a3	-0.10206153
194	0xbf2006d0	-0.62510395
195	0x3d90f014	0.07077041
196	0x3ee96cf4	0.45590937
197	0xbf0d63d2	-0.5523044
198	0x3cad5188	0.021157041
199	0x3eaea3ca	0.34109336
200	0x3e3d214f	0.18469737
201	0x3f15000c	0.58203197
202	0x3e3fc5fa	0.18727866
203	0x3ec14253	0.37745914
204	0x3e96083a	0.2930315
205	0x3d8e8576	0.069590494
206	0xbe909a84	-0.28242886
207	0x3e7d520a	0.24738327
208	0xbf399dbf	-0.72506326
209	0xbf327a30	-0.69717693
210	0xbe4b3ef7	-0.19848238
211	0xbe7b0969	-0.24515308
212	0x3e911a5b	0.2834042
213	0x3eb3cbe3	0.3511649
214	0xbf05131c	-0.51982284
215	0xbef87f2f	-0.48534533
216	0xbdec43e2	-0.11536385
217	0x3ee84676	0.45366257
218	0x3d32ab9a	0.043620683
219	0xbef65e81	-0.48118976

hidden_to_output.weight f4 [1, 220]
0	0x3efd0118	0.49414897
1	0xbe21917f	-0.15778159
2	0xbe4ddafd	-0.20103069
3	0xbdf51460	-0.11966777
4	0x3ca8f75f	0.020625768
5	0xbe3b5bd3	-0.18296747
6	0x3d93097f	0.071795456
7	0xbe18850a	-0.148945
8	0xbdcc4c21	-0.09975458
9	0x3ea3001a	0.31836015
10	0x3f0d9efb	0.5532071
11	0xbdeb60ba	-0.114930585
12	0x3f445de6	0.7670578
13	0x3ea75d85	0.32688537
14	0x3f034049	0.51269966
15	0x3ea4e526	0.32206076
16	0x3edfe5f6	0.43730134
17	0xbde85d2c	-0.11345896
18	0xbde9ad3f	-0.11409997
19	0xbe069b56	-0.13145193
20	0x3e8ae6b7	0.27129146
21	0xbe1f2c71	-0.15544297
22	0xbda02bbf	-0.07820844
23	0x3ec04f68	0.37560582
24	0xbe03fdad	-0.12889738
25	0x3eb5e24e	0.3552422
26	0xbe244b32	-0.1604431
27	0xbe0e7097	-0.13910137
28	0x3e63e287	0.22254382
29	0xbe0d6998	-0.13809812
30	0x3edf8db3	0.43662795
31	0xbd80034d	-0.062506296
32	0xbe3db96c	-0.18527764
33	0xbda1e47c	-0.07904908
34	0xbe24cf54	-0.16094714
35	0xbd64b1b3	-0.05583353
36	0x3ef8d53d	0.48600188
37	0x3ee2776b	0.44231734
38	0x3ed4632d	0.41481915
39	0xbe1eefa5	-0.15521105
40	0xbe0d9d74	-0.13829595
41	0x3e951a01	0.29121402
42	0x3e95b138	0.2923677
43	0x3f45c1e5	0.77248985
44	0xbe689385	-0.22712524
45	0x3e65af55	0.22430165
46	0xbe00ba44	-0.12571055
47	0x3e0018b5	0.12509425
48	0xbe81f0a4	-0.25378907
49	0xbe0d57cd	-0.13803025
50	0x3ea07945	0.3134252
51	0xbddf01df	-0.10889029
52	0xbe2c5435	-0.16828997
53	0x3ec22e0d	0.3792576
54	0xbe4ac5a1	-0.19801952
55	0xbe28adb6	-0.16472515
56	0x3ec9850b	0.39359316
57	0x3f151631	0.58236986
58	0xbe0e01ed	-0.13867922
59	0x3ef24074	0.473148
60	0x3ebc61b2	0.36793286
61	0x3d583118	0.052781194
62	0xbe0e1699	-0.13875808
63	0xbe03636d	-0.12830897
64	0x3ec754f7	0.3893201
65	0xbdaf095f	-0.08546709
66	0xbe1a410a	-0.15063873
67	0x3e8e7f54	0.2783152
68	0xbd11dcf2	-0.0356111
69	0x3eb20c72	0.3477512
70	0x3e1ff30c	0.15620059
71	0xbd7a2f51	-0.06108028
72	0x3f0f7186	0.560326
73	0xbcef2ef7	-0.0291972
74	0xbe462b8d	-0.19352551
75	0x3ea4d1f4	0.32191432
76	0x3f0a3a40	0.5399513
77	0x3eae6f49	0.3406928
78	0xbe3f000c	-0.18652362
79	0x3eb19a14	0.34687865
80	0x3eb74fe9	0.35803154
81	0xbe0ee6d7	-0.13955246
82	0x3ec334bd	0.38126174
83	0x3ed2fa7c	0.4120673
84	0x3ede7b30	0.4345336
85	0xbdfa380f	-0.122177236
86	0x3e707d04	0.2348519
87	0xbe36adc8	-0.1783973
88	0x3ee88bb8	0.45419097
89	0x3eb46cbd	0.3523921
90	0x3e9202dd	0.2851781
91	0x3e2f8320	0.17139864
92	0xbe194fcf	-0.14971851
93	0x3f0e8e64	0.5568602
94	0xbe192187	-0.14954196
95	0xbe3bc56b	-0.18337028
96	0x3ec64df8	0.3873136
97	0x3ea8a035	0.32934728
98	0x3e93526d	0.28773823
99	0x3dbf62c2	0.093450084
100	0x3ec6c686	0.38823336
101	0x3f05d302	0.522751
102	0x3eec0040	0.4609394
103	0x3ece10f0	0.40247297
104	0x3e9bbaa2	0.30415827
105	0x3f0db304	0.5535128
106	0xbe1e2fba	-0.15447894
107	0xbe14812e	-0.14502403
108	0x3ea248ef	0.3169627
109	0xbd28099c	-0.04102479
110	0xbd802275	-0.06256572
111	0xbdcee633	-0.10102501
112	0xbe32c096	-0.17456278
113	0xbe268aae	-0.1626384
114	0xbe317e31	-0.17333294
115	0x3f28b22a	0.65896857
116	0xbdb231f2	-0.087009326
117	0x3e5b7a3e	0.2143335
118	0x3e8acf17	0.27111122
119	0x3eba3969	0.36371925
120	0x3e6a75f6	0.22896561
121	0xbddb5f52	-0.1071154
122	0x3eefcffb	0.46838364
123	0x3edae987	0.42756292
124	0xbe270495	-0.16310342
125	0xbddfac45	-0.1092153
126	0xbe24fb4c	-0.16111487
127	0x3f0339b5	0.5125993
128	0xbe46aa23	-0.1940084
129	0x3e684528	0.22682631
130	0xbdaa3ff7	-0.083129816
131	0xbe1b6e0d	-0.151787
132	0xbddf1af4	-0.10893813
133	0x3ed5bd6a	0.41746074
134	0x3ea126fb	0.31475052
135	0xbe1c6e54	-0.15276462
136	0x3f08f769	0.5350252
137	0xbe2897f2	-0.16464213
138	0xbe37da1b	-0.17954294
139	0x3efb2cc3	0.49057588
140	0xbdc8ff88	-0.09814364
141	0xbe0d8690	-0.13820863
142	0xbe0b311d	-0.13592954
143	0xbe181a3c	-0.14853758
144	0xbda0d48c	-0.0785304
145	0xbdcfada9	-0.10140545
146	0xbe309ceb	-0.1724736
147	0x3e373e9e	0.1789498
148	0x3edabd70	0.42722654
149	0x3ef194b6	0.4718377
150	0xbe14eb3b	-0.14542858
151	0xbe1ca27d	-0.1529636
152	0xbe26c519	-0.16286124
153	0x3ea99661	0.33122543
154	0x3f131888	0.57459307
155	0xbd92729c	-0.07150766
156	0xbdedfd4b	-0.116205774
157	0xbe74c798	-0.23904264
158	0xbe323012	-0.1740115
159	0x3f0e2f9a	0.55541384
160	0xbdf2e97f	-0.11860942
161	0xbd0e5aae	-0.034754448
162	0x3ec09885	0.37616363
163	0xbe1d35a0	-0.15352488
164	0xbe3c2797	-0.18374477
165	0x3ec117a7	0.37713358
166	0xbde628b5	-0.11238233
167	0x3e867b4c	0.26265943
168	0x3ebd4bd8	0.36971927
169	0xbdc95eab	-0.098325096
170	0xbe2a6f22	-0.16643956
171	0xbddcf430	-0.107887626
172	0x3d89ab47	0.06722122
173	0x3ec5cbfe	0.38632196
174	0x3eec6845	0.461733
175	0x3ee820a7	0.45337412
176	0x3d5a9b03	0.053370487
177	0xbdda4ee7	-0.10659581
178	0xbdc2fb84	-0.09520629
179	0x3ea983dd	0.33108416
180	0xbdf48717	-0.11939829
181	0x3ee1599f	0.44013688
182	0xbcd42b1e	-0.025899466
183	0xbe7853f4	-0.24250776
184	0x3e007c95	0.12547524
185	0x3de0795e	0.10960649
186	0xbdfb8243	-0.12280705
187	0x3f4824f6	0.781814
188	0x3eec7e7b	0.46190247
189	0x3e60585a	0.21908703
190	0x3ed0cb35	0.40780035
191	0x3f2e6f65	0.68138725
192	0x3ea3fc79	0.3202856
193	0xbe014385	-0.12623413
194	0xbe1ba6d7	-0.15200363
195	0xbe0deed1	-0.13860632
196	0x3ebdc0d7	0.37061188
197	0xbe538906	-0.20657739
198	0x3e37d200	0.17951202
199	0x3ef5c70a	0.48003417
200	0x3eba67af	0.3640723
201	0x3e84608e	0.25854915
202	0x3e83eeb9	0.25768068
203	0x3ed7f931	0.42182305
204	0x3e7f8b73	0.2495554
205	0x3e9c893b	0.3057345
206	0xbd19aa77	-0.037516084
207	0x3e9f766c	0.31145036
208	0xbe3db633	-0.18526535
209	0xbe51ff57	-0.2050756
210	0x3e315201	0.17316438
211	0xbdac09cb	-0.08400305
212	0x3f023047	0.50854915
213	0x3f054bf4	0.5206902
214	0xbe32a308	-0.17445004
215	0xbdfd1e9e	-0.123593554
216	0x3f28eccb	0.6598632
217	0x3eedd7d3	0.46453723
218	0x3ed35170	0.4127307
219	0xbcf51cef	-0.029921023
