assignment_part3/model4.pth (torch, 2440 bytes, 3 tensors)

input_to_hidden.weight f4 [12, 6]
0	0xbeb2334f	-0.3480477
1	0x3f6e070b	0.92979497
2	0x3f4c9061	0.79907805
3	0x3f5f5663	0.8724119
4	0x3f003681	0.50083166
5	0xbea9d10d	-0.33167306
6	0x3e5188b1	0.204623
7	0x3f26bcd3	0.6513187
8	0x3f4b469f	0.79404634
9	0x3f4a53e3	0.7903425
10	0xbdad3b57	-0.08458584
11	0xbecc3daa	-0.39890796
12	0xbcd0f10c	-0.025505565
13	0x3ebfadfb	0.37437424
14	0x3f06c8d9	0.5265022
15	0x3f869ed6	1.0517223
16	0x3e6061fa	0.21912375
17	0xbeaeab45	-0.34115043
18	0x3e736002	0.23767093
19	0x3f162021	0.58642775
20	0x3f853404	1.0406499
21	0x3f31c0a9	0.694346
22	0xbd8254e6	-0.06363849
23	0xbf2082bb	-0.6269948
24	0xbdff582d	-0.1246799
25	0x3f864982	1.0491183
26	0x3f60cb11	0.87809855
27	0x3f99a978	1.2004843
28	0xbe951c65	-0.29123226
29	0xbf3d5fa7	-0.7397408
30	0xbe84fdb2	-0.25974804
31	0x3f6e674b	0.9312636
32	0x3fb9239c	1.4463992
33	0x3f9f6672	1.2453139
34	0xbd968e97	-0.073514156
35	0xbf3f4c64	-0.7472594
36	0x3e47452d	0.19459982
37	0xbf2bd567	-0.671225
38	0xbfd5a457	-1.6690778
39	0xbf956735	-1.1672121
40	0x3da5554a	0.08072908
41	0x3f78db26	0.97209394
42	0x3c897cd1	0.01678315
43	0x3f4a6f40	0.79076004
44	0x3f8b4e34	1.0883241
45	0x3f67b5ef	0.90511984
46	0x3e0a870c	0.13528079
47	0xbf0a6702	-0.5406343
48	0xbdffc7a0	-0.12489247
49	0xbf9be910	-1.21805
50	0xbfb68e0c	-1.4262099
51	0xbf1f8cba	-0.62324107
52	0x3ed992b7	0.42494747
53	0x3f891adf	1.0711325
54	0x3d3b7098	0.045761675
55	0x3f47f450	0.78107166
56	0x3faa250a	1.3292553
57	0x3f56aef0	0.83860683
58	0xbd72b9f1	-0.05925936
59	0xbee6896a	-0.45026714
60	0x3eec2a79	0.46126154
61	0x3eaf2ba0	0.3421297
62	0x3efbdf63	0.49193868
63	0x3ee45fc7	0.44604322
64	0xbe0bf80b	-0.1366884
65	0x3d423415	0.04741295
66	0xbcd7f247	-0.026360644
67	0xbfa732fe	-1.3062437
68	0xbfab325b	-1.3374742
69	0xbe827aab	-0.25484213
70	0x3e605a06	0.21909341
71	0x3f85b258	1.0445051

input_to_hidden.bias f4 [12]
0	0xbf926e64	-1.1439939
1	0xbf360e5a	-0.7111565
2	0xbf04d0e7	-0.5188126
3	0xbf3db564	-0.74104905
4	0xbf5d3dfe	-0.8642272
5	0xbfacee94	-1.3510308
6	0x3f932d78	1.1498251
7	0xbf9a369b	-1.2047914
8	0x3f4a69b7	0.7906756
9	0xbf9ba6f4	-1.2160325
10	0xbe82c691	-0.2554212
11	0x3f0c74b1	0.54865557

hidden_to_output.weight f4 [1, 12]
0	0xbf0a5923	-0.5404226
1	0xbf0bafc5	-0.5456508
2	0xbef8ee59	-0.48619345
3	0xbf1a329c	-0.60233474
4	0xbf040f5c	-0.51585937
5	0xbf123ff0	-0.5712881
6	0x3faa8570	1.3321972
7	0xbf469f0a	-0.77586424
8	0x3faff106	1.374543
9	0xbf26a164	-0.6509001
10	0xbdd09b0e	-0.10185824
11	0x3fa65208	1.2993784
