assignment_part3/model2.pth (torch, 2440 bytes, 3 tensors)

input_to_hidden.weight f4 [12, 6]
000000 fe 7c 05 3c f1 72 bd 3e 24 c0 0f 3f c3 4b 43 3f
       0.008147476 0.37001756 0.5615256 0.7628748
000010 0e cd 9c bd fc 5e fa bd 9c 9a 76 be de 2f 3d 3f
       -0.076562986 -0.12225148 -0.24082416 0.73901165
000020 20 3c 7b 3f 01 7c 9b 3e b7 c3 67 3e e2 3c 18 be
       0.9813862 0.30368045 0.22633253 -0.14866975
000030 8f 87 53 3d c3 ac 3f 3f 73 7b 81 3f 7f be 5c 3e
       0.05164295 0.7487299 1.0115799 0.21557043
000040 10 73 1b be 8c 3f 1d bf bd 25 ec 3d 26 51 2e bf
       -0.15180612 -0.6142509 0.115306355 -0.6809257
000050 c9 ff 80 bf 4c 3a a8 be 63 30 40 bd cd 60 54 3d
       -1.007806 -0.32856977 -0.046921145 0.05185013
000060 18 a5 e4 bd 58 56 61 3f 08 ac 39 3f 5b 57 0c 3f
       -0.11164302 0.88022375 0.72528124 0.54820794
000070 29 93 50 be 58 e8 ac 3d 7e 47 a4 be 39 fe 14 bf
       -0.20368637 0.084427536 -0.32085794 -0.58200413
000080 56 6a 31 bf c9 64 3a bf 8e bc 3f 3e 2b b3 78 3d
       -0.6930288 -0.72810036 0.18724272 0.060717743
000090 4c 47 a1 3e ee fe 50 3e 6c cc c7 3e d0 1a 23 3f
       0.31499708 0.20409748 0.3902315 0.6371279
0000a0 b1 a9 8f 3e d5 22 b6 bd a8 d1 a4 3e f7 fa 30 3c
       0.28059152 -0.088933624 0.32191205 0.010802022
0000b0 08 85 54 3f 2f 14 10 3f ce e4 97 3d 73 35 22 be
       0.8301549 0.562808 0.07416688 -0.15840702
0000c0 dc 47 b2 3e b4 c6 1a 3f 15 89 4d 3f 2d fa b8 3e
       0.3482045 0.60459447 0.80287296 0.3612837
0000d0 c1 97 e3 bd 68 0a 67 be 1c a9 a8 3e a0 30 9b 3e
       -0.11112929 -0.22562563 0.3294152 0.30310535
0000e0 24 2e 36 3f bd 05 f1 3e c2 12 26 bd 94 6e cb be
       0.71164155 0.4707469 -0.040545233 -0.39732802
0000f0 d0 8e 17 be 13 84 11 3f 6c 3c 67 3f 5d d2 de 3e
       -0.14800572 0.56842154 0.9032657 0.4351987
000100 c1 09 5b 3e 1c c8 94 be 58 bc c9 bd 7e 1f 30 3f
       0.2139044 -0.2905892 -0.09850377 0.68798053
000110 fe 48 3a 3f c3 ef 5b 3f cd ac 8a be 68 4b 75 be
       0.7276763 0.8591272 -0.27084962 -0.23954546

input_to_hidden.bias f4 [12]
000000 6a 3e df be 2e d3 12 bf fc 62 db be be 46 cb bc
       -0.43602306 -0.57353485 -0.42848957 -0.024814006
000010 a7 2f 80 be 42 01 3b bd 6d 12 c4 be 3f d2 e1 be
       -0.25036356 -0.045655496 -0.38295308 -0.44105718
000020 82 f1 73 be 90 ac 90 be 48 8d 9a be 21 9b a3 be
       -0.23822597 -0.28256655 -0.30185914 -0.3195429

hidden_to_output.weight f4 [1, 12]
000000 b9 e7 95 be b6 65 91 be a0 43 b0 be 05 33 e0 3e
       -0.29278353 -0.28397912 -0.34426594 0.43788925
000010 95 e2 70 be a9 48 ee 3e f2 9a 86 be 4e 55 a6 be
       -0.23523934 0.4653981 -0.2629009 -0.32486957
000020 db 09 46 be 61 9f 87 be 3b 20 ac be dc fe 61 be
       -0.19339697 -0.26488784 -0.3361834 -0.22069877
