assignment_part3/model1.pth (torch, 2440 bytes, 3 tensors)

input_to_hidden.weight f4 [12, 6]
000000 57 e7 1f 3d 80 ca 89 3e 6c 1c c7 3e 0f 9c 22 3f
       0.039038982 0.26912308 0.38888872 0.63519377
000010 d3 98 8d bd ae 19 aa 3b 2b 34 47 be 46 46 23 3f
       -0.069139145 0.0051910495 -0.19453494 0.63779104
000020 8e fa 4f 3f 74 33 66 3e 42 14 97 3e e6 e5 ce 3c
       0.8124169 0.22480565 0.29507643 0.025256108
000030 75 f2 e0 3d 6f e5 28 3f 62 68 5d 3f cc 69 0c 3e
       0.10983745 0.6597509 0.864874 0.13712233
000040 9f ca bc bd 62 ae ea be c8 74 f9 3d 52 3c 01 bf
       -0.092183344 -0.4583617 0.121804774 -0.50482666
000050 49 51 44 bf 78 f9 34 be 8d e3 6c bd 27 95 e5 bd
       -0.7668653 -0.1767329 -0.057834197 -0.11210089
000060 35 83 31 bd 94 a9 3f 3f 6d 46 00 3f 7c f7 ca 3e
       -0.04333802 0.7486813 0.5010746 0.3964194
000070 d8 1f 23 be d3 8a 88 3e 15 91 af be 23 1b d2 be
       -0.15930116 0.26668414 -0.34290376 -0.4103633
000080 6a 15 e6 be f4 7a 1a bf 63 f5 ff 3d 77 9d 19 be
       -0.44938213 -0.6034386 0.12497976 -0.15001474
000090 89 42 cd 3e 78 67 22 3e 22 88 8c 3e 36 db 12 3f
       0.40089825 0.15859783 0.2744761 0.5736574
0000a0 be f3 b4 3e f7 57 aa 3d 39 eb c7 3e bd 5d 51 bd
       0.3534221 0.08317559 0.39046648 -0.051114786
0000b0 a4 f4 31 3f 5d c6 f3 3e d5 15 fe 3d ba 3e ef ba
       0.69513917 0.47612277 0.12406508 -0.0018252947
0000c0 43 54 bb 3e 59 fe d8 3e 2b 8e 0d 3f 43 04 7a 3e
       0.36587724 0.42381552 0.55295056 0.24415688
0000d0 d3 b9 0d bd 86 a1 cd bc 29 19 c3 3e 02 f6 5a 3e
       -0.034601044 -0.025101434 0.38105133 0.21382907
0000e0 13 0c 13 3f fd 09 ce 3e 6f eb 8a 3c 96 4a 6a be
       0.574403 0.40241995 0.016957967 -0.22880015
0000f0 7d 4e cf bd 6c 3a f5 3e 8c bd 3c 3f db 61 b4 3e
       -0.10122392 0.47896135 0.73726726 0.35230908
000100 23 1c 93 3e 5a 9e 04 be dd 2b 2e bd fb 26 09 3f
       0.28732404 -0.12951031 -0.0425223 0.53575104
000110 76 1e f1 3e c3 32 35 3f 45 2c 59 be e1 ff eb bc
       0.47093552 0.7078058 -0.21208294 -0.028808536

input_to_hidden.bias f4 [12]
000000 9d 44 95 be 2d 27 c4 be 9f be 7d be eb 40 4a be
       -0.2915391 -0.3831114 -0.24779747 -0.19751327
000010 6e ae 4b bd f4 b5 8e be 69 7e 49 be 33 99 8a be
       -0.049726896 -0.27873194 -0.19677128 -0.27070007
000020 b4 98 c8 bc a7 79 ca bd 7c 16 08 be 55 4b b0 bd
       -0.024486877 -0.098864846 -0.13289827 -0.086081184

hidden_to_output.weight f4 [1, 12]
000000 2d 3a 8c be 6b 3c 81 be 9b a0 ad be b3 a8 8a 3e
       -0.27388135 -0.25241408 -0.33911595 0.27081832
000010 89 89 3a be 3f 48 89 3e db 54 99 be 8e 08 b0 be
       -0.18216528 0.26812932 -0.29947552 -0.34381527
000020 a9 7d 12 be e1 71 8c be 75 78 a1 be d4 52 22 be
       -0.14305748 -0.27430633 -0.31537214 -0.15851909
